{"format": "graph-model", "generatedBy": "2.2.0", "convertedBy": "TensorFlow.js Converter v2.0.1.post1", "userDefinedMetadata": {"signature": {"inputs": {"l_mat_sd:0": {"name": "l_mat_sd:0", "dtype": "DT_FLOAT", "tensorShape": {"dim": [{"size": "-1"}, {"size": "-1"}]}}, "dx:0": {"name": "dx:0", "dtype": "DT_FLOAT", "tensorShape": {}}, "current:0": {"name": "current:0", "dtype": "DT_FLOAT", "tensorShape": {}}, "val_mat_sd:0": {"name": "val_mat_sd:0", "dtype": "DT_FLOAT", "tensorShape": {"dim": [{"size": "-1"}, {"size": "-1"}]}}, "d_mat_sd:0": {"name": "d_mat_sd:0", "dtype": "DT_FLOAT", "tensorShape": {"dim": [{"size": "-1"}, {"size": "-1"}]}}, "tolerance:0": {"name": "tolerance:0", "dtype": "DT_FLOAT", "tensorShape": {}}, "u_mat_sd:0": {"name": "u_mat_sd:0", "dtype": "DT_FLOAT", "tensorShape": {"dim": [{"size": "-1"}, {"size": "-1"}]}}, "ch_n:0": {"name": "ch_n:0", "dtype": "DT_FLOAT", "tensorShape": {"dim": [{"size": "-1"}]}}, "c_mat_sn:0": {"name": "c_mat_sn:0", "dtype": "DT_FLOAT", "tensorShape": {"dim": [{"size": "-1"}, {"size": "-1"}]}}, "dt:0": {"name": "dt:0", "dtype": "DT_FLOAT", "tensorShape": {}}}, "outputs": {"Identity_1:0": {"name": "Identity_1:0", "dtype": "DT_FLOAT", "tensorShape": {"dim": [{"size": "-1"}, {"size": "-1"}]}}, "Identity_2:0": {"name": "Identity_2:0", "dtype": "DT_FLOAT", "tensorShape": {}}, "Identity:0": {"name": "Identity:0", "dtype": "DT_FLOAT", "tensorShape": {"dim": [{"size": "-1"}]}}}}}, "modelTopology": {"node": [{"name": "PartitionedCall/Sum_4/reduction_indices", "op": "Const", "attr": {"value": {"tensor": {"dtype": "DT_INT32", "tensorShape": {}}}, "dtype": {"type": "DT_INT32"}}}, {"name": "PartitionedCall/mul_14/x", "op": "Const", "attr": {"value": {"tensor": {"dtype": "DT_FLOAT", "tensorShape": {}}}, "dtype": {"type": "DT_FLOAT"}}}, {"name": "PartitionedCall/mul_22/x", "op": "Const", "attr": {"value": {"tensor": {"dtype": "DT_FLOAT", "tensorShape": {}}}, "dtype": {"type": "DT_FLOAT"}}}, {"name": "PartitionedCall/mul_18/x", "op": "Const", "attr": {"dtype": {"type": "DT_FLOAT"}, "value": {"tensor": {"dtype": "DT_FLOAT", "tensorShape": {}}}}}, {"name": "PartitionedCall/truediv_7/x", "op": "Const", "attr": {"value": {"tensor": {"dtype": "DT_FLOAT", "tensorShape": {}}}, "dtype": {"type": "DT_FLOAT"}}}, {"name": "PartitionedCall/Less/y", "op": "Const", "attr": {"value": {"tensor": {"dtype": "DT_FLOAT", "tensorShape": {}}}, "dtype": {"type": "DT_FLOAT"}}}, {"name": "PartitionedCall/while_1/loop_counter", "op": "Const", "attr": {"value": {"tensor": {"dtype": "DT_INT32", "tensorShape": {}}}, "dtype": {"type": "DT_INT32"}}}, {"name": "PartitionedCall/add_6/y", "op": "Const", "attr": {"value": {"tensor": {"dtype": "DT_FLOAT", "tensorShape": {}}}, "dtype": {"type": "DT_FLOAT"}}}, {"name": "PartitionedCall/Sum_2/reduction_indices", "op": "Const", "attr": {"dtype": {"type": "DT_INT32"}, "value": {"tensor": {"dtype": "DT_INT32", "tensorShape": {"dim": [{"size": "2"}]}}}}}, {"name": "PartitionedCall/truediv_4/x", "op": "Const", "attr": {"value": {"tensor": {"dtype": "DT_FLOAT", "tensorShape": {}}}, "dtype": {"type": "DT_FLOAT"}}}, {"name": "PartitionedCall/strided_slice_19/stack", "op": "Const", "attr": {"value": {"tensor": {"dtype": "DT_INT32", "tensorShape": {"dim": [{"size": "2"}]}}}, "dtype": {"type": "DT_INT32"}}}, {"name": "PartitionedCall/strided_slice_19/stack_2", "op": "Const", "attr": {"value": {"tensor": {"dtype": "DT_INT32", "tensorShape": {"dim": [{"size": "2"}]}}}, "dtype": {"type": "DT_INT32"}}}, {"name": "PartitionedCall/Tile/multiples/0", "op": "Const", "attr": {"value": {"tensor": {"dtype": "DT_INT32", "tensorShape": {}}}, "dtype": {"type": "DT_INT32"}}}, {"name": "PartitionedCall/strided_slice_2/stack_1", "op": "Const", "attr": {"value": {"tensor": {"dtype": "DT_INT32", "tensorShape": {"dim": [{"size": "1"}]}}}, "dtype": {"type": "DT_INT32"}}}, {"name": "PartitionedCall/strided_slice_18/stack", "op": "Const", "attr": {"dtype": {"type": "DT_INT32"}, "value": {"tensor": {"dtype": "DT_INT32", "tensorShape": {"dim": [{"size": "1"}]}}}}}, {"name": "PartitionedCall/strided_slice_18/stack_2", "op": "Const", "attr": {"value": {"tensor": {"dtype": "DT_INT32", "tensorShape": {"dim": [{"size": "1"}]}}}, "dtype": {"type": "DT_INT32"}}}, {"name": "PartitionedCall/strided_slice_22/stack", "op": "Const", "attr": {"dtype": {"type": "DT_INT32"}, "value": {"tensor": {"dtype": "DT_INT32", "tensorShape": {"dim": [{"size": "3"}]}}}}}, {"name": "PartitionedCall/strided_slice_22/stack_2", "op": "Const", "attr": {"value": {"tensor": {"dtype": "DT_INT32", "tensorShape": {"dim": [{"size": "3"}]}}}, "dtype": {"type": "DT_INT32"}}}, {"name": "PartitionedCall/while_1/maximum_iterations", "op": "Const", "attr": {"value": {"tensor": {"dtype": "DT_INT32", "tensorShape": {}}}, "dtype": {"type": "DT_INT32"}}}, {"name": "c_mat_sn", "op": "Placeholder", "attr": {"dtype": {"type": "DT_FLOAT"}, "shape": {"shape": {"dim": [{"size": "-1"}, {"size": "-1"}]}}}}, {"name": "ch_n", "op": "Placeholder", "attr": {"dtype": {"type": "DT_FLOAT"}, "shape": {"shape": {"dim": [{"size": "-1"}]}}}}, {"name": "current", "op": "Placeholder", "attr": {"dtype": {"type": "DT_FLOAT"}, "shape": {"shape": {}}}}, {"name": "d_mat_sd", "op": "Placeholder", "attr": {"dtype": {"type": "DT_FLOAT"}, "shape": {"shape": {"dim": [{"size": "-1"}, {"size": "-1"}]}}}}, {"name": "dt", "op": "Placeholder", "attr": {"dtype": {"type": "DT_FLOAT"}, "shape": {"shape": {}}}}, {"name": "dx", "op": "Placeholder", "attr": {"dtype": {"type": "DT_FLOAT"}, "shape": {"shape": {}}}}, {"name": "l_mat_sd", "op": "Placeholder", "attr": {"shape": {"shape": {"dim": [{"size": "-1"}, {"size": "-1"}]}}, "dtype": {"type": "DT_FLOAT"}}}, {"name": "tolerance", "op": "Placeholder", "attr": {"dtype": {"type": "DT_FLOAT"}, "shape": {"shape": {}}}}, {"name": "u_mat_sd", "op": "Placeholder", "attr": {"dtype": {"type": "DT_FLOAT"}, "shape": {"shape": {"dim": [{"size": "-1"}, {"size": "-1"}]}}}}, {"name": "val_mat_sd", "op": "Placeholder", "attr": {"dtype": {"type": "DT_FLOAT"}, "shape": {"shape": {"dim": [{"size": "-1"}, {"size": "-1"}]}}}}, {"name": "PartitionedCall/pow_1", "op": "Square", "input": ["ch_n"], "attr": {"T": {"type": "DT_FLOAT"}}}, {"name": "PartitionedCall/truediv_2", "op": "RealDiv", "input": ["PartitionedCall/truediv_4/x", "ch_n"], "attr": {"T": {"type": "DT_FLOAT"}}}, {"name": "PartitionedCall/Log", "op": "Log", "input": ["ch_n"], "attr": {"T": {"type": "DT_FLOAT"}}}, {"name": "PartitionedCall/strided_slice_21", "op": "StridedSlice", "input": ["d_mat_sd", "PartitionedCall/strided_slice_22/stack", "PartitionedCall/strided_slice_22/stack", "PartitionedCall/strided_slice_22/stack_2"], "attr": {"Index": {"type": "DT_INT32"}, "T": {"type": "DT_FLOAT"}, "shrink_axis_mask": {"i": "0"}, "ellipsis_mask": {"i": "0"}, "begin_mask": {"i": "5"}, "new_axis_mask": {"i": "2"}, "end_mask": {"i": "5"}}}, {"name": "PartitionedCall/Shape_2", "op": "Shape", "input": ["l_mat_sd"], "attr": {"T": {"type": "DT_FLOAT"}, "out_type": {"type": "DT_INT32"}}}, {"name": "PartitionedCall/strided_slice_17", "op": "StridedSlice", "input": ["l_mat_sd", "PartitionedCall/strided_slice_22/stack", "PartitionedCall/strided_slice_22/stack", "PartitionedCall/strided_slice_22/stack_2"], "attr": {"shrink_axis_mask": {"i": "0"}, "ellipsis_mask": {"i": "0"}, "begin_mask": {"i": "5"}, "new_axis_mask": {"i": "2"}, "end_mask": {"i": "5"}, "Index": {"type": "DT_INT32"}, "T": {"type": "DT_FLOAT"}}}, {"name": "PartitionedCall/add_6", "op": "AddV2", "input": ["PartitionedCall/add_6/y", "tolerance"], "attr": {"T": {"type": "DT_FLOAT"}}}, {"name": "PartitionedCall/strided_slice_20", "op": "StridedSlice", "input": ["u_mat_sd", "PartitionedCall/strided_slice_22/stack", "PartitionedCall/strided_slice_22/stack", "PartitionedCall/strided_slice_22/stack_2"], "attr": {"ellipsis_mask": {"i": "0"}, "begin_mask": {"i": "5"}, "new_axis_mask": {"i": "2"}, "end_mask": {"i": "5"}, "Index": {"type": "DT_INT32"}, "T": {"type": "DT_FLOAT"}, "shrink_axis_mask": {"i": "0"}}}, {"name": "PartitionedCall/strided_slice_22", "op": "StridedSlice", "input": ["val_mat_sd", "PartitionedCall/strided_slice_22/stack", "PartitionedCall/strided_slice_22/stack", "PartitionedCall/strided_slice_22/stack_2"], "attr": {"Index": {"type": "DT_INT32"}, "T": {"type": "DT_FLOAT"}, "shrink_axis_mask": {"i": "0"}, "begin_mask": {"i": "5"}, "ellipsis_mask": {"i": "0"}, "new_axis_mask": {"i": "2"}, "end_mask": {"i": "5"}}}, {"name": "PartitionedCall/truediv_4", "op": "RealDiv", "input": ["PartitionedCall/truediv_4/x", "PartitionedCall/pow_1"], "attr": {"T": {"type": "DT_FLOAT"}}}, {"name": "PartitionedCall/strided_slice_3", "op": "StridedSlice", "input": ["PartitionedCall/Log", "PartitionedCall/strided_slice_19/stack", "PartitionedCall/strided_slice_19/stack", "PartitionedCall/strided_slice_19/stack_2"], "attr": {"end_mask": {"i": "1"}, "T": {"type": "DT_FLOAT"}, "Index": {"type": "DT_INT32"}, "shrink_axis_mask": {"i": "0"}, "ellipsis_mask": {"i": "0"}, "begin_mask": {"i": "1"}, "new_axis_mask": {"i": "2"}}}, {"name": "PartitionedCall/strided_slice_2", "op": "StridedSlice", "input": ["PartitionedCall/Shape_2", "PartitionedCall/strided_slice_18/stack_2", "PartitionedCall/strided_slice_2/stack_1", "PartitionedCall/strided_slice_18/stack_2"], "attr": {"end_mask": {"i": "0"}, "T": {"type": "DT_INT32"}, "Index": {"type": "DT_INT32"}, "shrink_axis_mask": {"i": "1"}, "begin_mask": {"i": "0"}, "ellipsis_mask": {"i": "0"}, "new_axis_mask": {"i": "0"}}}, {"name": "PartitionedCall/pow", "op": "Square", "input": ["PartitionedCall/strided_slice_22"], "attr": {"T": {"type": "DT_FLOAT"}}}, {"name": "PartitionedCall/mul_3", "op": "Mul", "input": ["PartitionedCall/strided_slice_17", "PartitionedCall/strided_slice_22"], "attr": {"T": {"type": "DT_FLOAT"}}}, {"name": "PartitionedCall/Tile/multiples", "op": "Pack", "input": ["PartitionedCall/Tile/multiples/0", "PartitionedCall/strided_slice_2"], "attr": {"T": {"type": "DT_INT32"}, "axis": {"i": "0"}, "N": {"i": "2"}}}, {"name": "PartitionedCall/Tile", "op": "Tile", "input": ["PartitionedCall/strided_slice_3", "PartitionedCall/Tile/multiples"], "attr": {"Tmultiples": {"type": "DT_INT32"}, "T": {"type": "DT_FLOAT"}}}, {"name": "PartitionedCall/Cumsum", "op": "Cumsum", "input": ["PartitionedCall/Tile", "PartitionedCall/while_1/maximum_iterations"], "attr": {"reverse": {"b": false}, "Tidx": {"type": "DT_INT32"}, "T": {"type": "DT_FLOAT"}, "exclusive": {"b": true}}}, {"name": "PartitionedCall/Exp", "op": "Exp", "input": ["PartitionedCall/Cumsum"], "attr": {"T": {"type": "DT_FLOAT"}}}, {"name": "PartitionedCall/strided_slice_11", "op": "StridedSlice", "input": ["PartitionedCall/Exp", "PartitionedCall/strided_slice_18/stack", "PartitionedCall/strided_slice_18/stack", "PartitionedCall/strided_slice_18/stack_2"], "attr": {"shrink_axis_mask": {"i": "0"}, "ellipsis_mask": {"i": "0"}, "begin_mask": {"i": "0"}, "new_axis_mask": {"i": "1"}, "end_mask": {"i": "0"}, "Index": {"type": "DT_INT32"}, "T": {"type": "DT_FLOAT"}}}, {"name": "PartitionedCall/mul_1", "op": "Mul", "input": ["PartitionedCall/strided_slice_11", "PartitionedCall/strided_slice_17"], "attr": {"T": {"type": "DT_FLOAT"}}}, {"name": "PartitionedCall/mul_4", "op": "Mul", "input": ["PartitionedCall/mul_3", "PartitionedCall/strided_slice_11"], "attr": {"T": {"type": "DT_FLOAT"}}}, {"name": "PartitionedCall/Sum", "op": "Sum", "input": ["PartitionedCall/mul_1", "PartitionedCall/while_1/maximum_iterations"], "attr": {"T": {"type": "DT_FLOAT"}, "Tidx": {"type": "DT_INT32"}, "keep_dims": {"b": false}}}, {"name": "PartitionedCall/Sum_1", "op": "Sum", "input": ["PartitionedCall/mul_4", "PartitionedCall/while_1/maximum_iterations"], "attr": {"T": {"type": "DT_FLOAT"}, "Tidx": {"type": "DT_INT32"}, "keep_dims": {"b": false}}}, {"name": "PartitionedCall/strided_slice_15", "op": "StridedSlice", "input": ["PartitionedCall/Sum", "PartitionedCall/strided_slice_19/stack", "PartitionedCall/strided_slice_19/stack", "PartitionedCall/strided_slice_19/stack_2"], "attr": {"shrink_axis_mask": {"i": "0"}, "begin_mask": {"i": "0"}, "ellipsis_mask": {"i": "1"}, "new_axis_mask": {"i": "2"}, "end_mask": {"i": "0"}, "T": {"type": "DT_FLOAT"}, "Index": {"type": "DT_INT32"}}}, {"name": "PartitionedCall/truediv", "op": "RealDiv", "input": ["c_mat_sn", "PartitionedCall/Sum"], "attr": {"T": {"type": "DT_FLOAT"}}}, {"name": "PartitionedCall/strided_slice_14", "op": "StridedSlice", "input": ["PartitionedCall/Sum_1", "PartitionedCall/strided_slice_19/stack", "PartitionedCall/strided_slice_19/stack", "PartitionedCall/strided_slice_19/stack_2"], "attr": {"shrink_axis_mask": {"i": "0"}, "ellipsis_mask": {"i": "1"}, "begin_mask": {"i": "0"}, "new_axis_mask": {"i": "2"}, "end_mask": {"i": "0"}, "Index": {"type": "DT_INT32"}, "T": {"type": "DT_FLOAT"}}}, {"name": "PartitionedCall/strided_slice_8", "op": "StridedSlice", "input": ["PartitionedCall/truediv", "PartitionedCall/strided_slice_19/stack", "PartitionedCall/strided_slice_19/stack", "PartitionedCall/strided_slice_19/stack_2"], "attr": {"Index": {"type": "DT_INT32"}, "T": {"type": "DT_FLOAT"}, "shrink_axis_mask": {"i": "0"}, "ellipsis_mask": {"i": "1"}, "begin_mask": {"i": "0"}, "new_axis_mask": {"i": "2"}, "end_mask": {"i": "0"}}}, {"name": "PartitionedCall/mul_2", "op": "Mul", "input": ["PartitionedCall/mul_1", "PartitionedCall/strided_slice_8"], "attr": {"T": {"type": "DT_FLOAT"}}}, {"name": "PartitionedCall/mul_6", "op": "Mul", "input": ["PartitionedCall/add_6/y", "PartitionedCall/mul_2"], "attr": {"T": {"type": "DT_FLOAT"}}}, {"name": "PartitionedCall/mul_5", "op": "Mul", "input": ["PartitionedCall/mul_2", "PartitionedCall/pow"], "attr": {"T": {"type": "DT_FLOAT"}}}, {"name": "PartitionedCall/mul_9", "op": "Mul", "input": ["PartitionedCall/mul_2", "PartitionedCall/strided_slice_22"], "attr": {"T": {"type": "DT_FLOAT"}}}, {"name": "PartitionedCall/mul_7", "op": "Mul", "input": ["PartitionedCall/mul_6", "PartitionedCall/strided_slice_22"], "attr": {"T": {"type": "DT_FLOAT"}}}, {"name": "PartitionedCall/Sum_3", "op": "Sum", "input": ["PartitionedCall/mul_9", "PartitionedCall/Sum_2/reduction_indices"], "attr": {"Tidx": {"type": "DT_INT32"}, "keep_dims": {"b": false}, "T": {"type": "DT_FLOAT"}}}, {"name": "PartitionedCall/mul_8", "op": "Mul", "input": ["PartitionedCall/mul_7", "PartitionedCall/strided_slice_14"], "attr": {"T": {"type": "DT_FLOAT"}}}, {"name": "PartitionedCall/add", "op": "AddV2", "input": ["PartitionedCall/Sum_3", "ch_n"], "attr": {"T": {"type": "DT_FLOAT"}}}, {"name": "PartitionedCall/truediv_1", "op": "RealDiv", "input": ["PartitionedCall/mul_8", "PartitionedCall/strided_slice_15"], "attr": {"T": {"type": "DT_FLOAT"}}}, {"name": "PartitionedCall/sub_1", "op": "Sub", "input": ["PartitionedCall/add", "PartitionedCall/truediv_2"], "attr": {"T": {"type": "DT_FLOAT"}}}, {"name": "PartitionedCall/sub", "op": "Sub", "input": ["PartitionedCall/mul_5", "PartitionedCall/truediv_1"], "attr": {"T": {"type": "DT_FLOAT"}}}, {"name": "PartitionedCall/Sum_2", "op": "Sum", "input": ["PartitionedCall/sub", "PartitionedCall/Sum_2/reduction_indices"], "attr": {"T": {"type": "DT_FLOAT"}, "Tidx": {"type": "DT_INT32"}, "keep_dims": {"b": false}}}, {"name": "PartitionedCall/truediv_3", "op": "RealDiv", "input": ["PartitionedCall/Sum_2", "ch_n"], "attr": {"T": {"type": "DT_FLOAT"}}}, {"name": "PartitionedCall/add_1", "op": "AddV2", "input": ["PartitionedCall/add_6/y", "PartitionedCall/truediv_3"], "attr": {"T": {"type": "DT_FLOAT"}}}, {"name": "PartitionedCall/add_2", "op": "AddV2", "input": ["PartitionedCall/add_1", "PartitionedCall/truediv_4"], "attr": {"T": {"type": "DT_FLOAT"}}}, {"name": "PartitionedCall/truediv_5", "op": "RealDiv", "input": ["PartitionedCall/sub_1", "PartitionedCall/add_2"], "attr": {"T": {"type": "DT_FLOAT"}}}, {"name": "PartitionedCall/while", "op": "StatelessWhile", "input": ["PartitionedCall/while_1/loop_counter", "PartitionedCall/while_1/maximum_iterations", "ch_n", "PartitionedCall/truediv_5", "PartitionedCall/Exp", "PartitionedCall/sub_1", "PartitionedCall/Sum", "c_mat_sn", "l_mat_sd", "val_mat_sd"], "attr": {"_num_original_outputs": {"i": "10"}, "body": {"func": {"name": "__inference_while_body_181_1726_frozen"}}, "output_shapes": {"list": {"shape": [{}, {}, {"dim": [{"size": "-1"}]}, {"dim": [{"size": "-1"}]}, {"dim": [{"size": "-1"}, {"size": "-1"}]}, {"dim": [{"size": "-1"}]}, {"dim": [{"size": "-1"}, {"size": "-1"}]}, {"dim": [{"size": "-1"}, {"size": "-1"}]}, {"dim": [{"size": "-1"}, {"size": "-1"}]}, {"dim": [{"size": "-1"}, {"size": "-1"}]}]}}, "T": {"list": {"type": ["DT_INT32", "DT_INT32", "DT_FLOAT", "DT_FLOAT", "DT_FLOAT", "DT_FLOAT", "DT_FLOAT", "DT_FLOAT", "DT_FLOAT", "DT_FLOAT"]}}, "_lower_using_switch_merge": {"b": false}, "_read_only_resource_inputs": {"list": {}}, "parallel_iterations": {"i": "10"}, "cond": {"func": {"name": "__inference_while_cond_180_1991_frozen"}}}}, {"name": "PartitionedCall/Min", "op": "Min", "input": ["PartitionedCall/while:2", "PartitionedCall/strided_slice_18/stack"], "attr": {"T": {"type": "DT_FLOAT"}, "Tidx": {"type": "DT_INT32"}, "keep_dims": {"b": false}}}, {"name": "PartitionedCall/Less", "op": "Less", "input": ["PartitionedCall/Min", "PartitionedCall/Less/y"], "attr": {"T": {"type": "DT_FLOAT"}}}, {"name": "PartitionedCall/cond", "op": "StatelessIf", "input": ["PartitionedCall/Less", "c_mat_sn", "l_mat_sd", "ch_n", "val_mat_sd", "PartitionedCall/while:4", "PartitionedCall/while:2", "PartitionedCall/while:6"], "attr": {"Tin": {"list": {"type": ["DT_FLOAT", "DT_FLOAT", "DT_FLOAT", "DT_FLOAT", "DT_FLOAT", "DT_FLOAT", "DT_FLOAT"]}}, "else_branch": {"func": {"name": "__inference_cond_false_399_1746_frozen"}}, "output_shapes": {"list": {"shape": [{"dim": [{"size": "-1"}, {"size": "-1"}]}, {"dim": [{"size": "-1"}]}, {"dim": [{"size": "-1"}, {"size": "-1"}]}]}}, "_read_only_resource_inputs": {"list": {}}, "_lower_using_switch_merge": {"b": false}, "Tout": {"list": {"type": ["DT_FLOAT", "DT_FLOAT", "DT_FLOAT"]}}, "Tcond": {"type": "DT_BOOL"}, "then_branch": {"func": {"name": "__inference_cond_true_398_1949_frozen"}}}}, {"name": "PartitionedCall/strided_slice_18", "op": "StridedSlice", "input": ["PartitionedCall/cond", "PartitionedCall/strided_slice_18/stack", "PartitionedCall/strided_slice_18/stack", "PartitionedCall/strided_slice_18/stack_2"], "attr": {"end_mask": {"i": "0"}, "Index": {"type": "DT_INT32"}, "T": {"type": "DT_FLOAT"}, "shrink_axis_mask": {"i": "0"}, "ellipsis_mask": {"i": "0"}, "begin_mask": {"i": "0"}, "new_axis_mask": {"i": "1"}}}, {"name": "Identity", "op": "Identity", "input": ["PartitionedCall/cond:1"], "attr": {"T": {"type": "DT_FLOAT"}}}, {"name": "PartitionedCall/mul_18", "op": "Mul", "input": ["PartitionedCall/cond:1", "PartitionedCall/mul_18/x"], "attr": {"T": {"type": "DT_FLOAT"}}}, {"name": "PartitionedCall/truediv_7", "op": "RealDiv", "input": ["PartitionedCall/truediv_7/x", "PartitionedCall/cond:1"], "attr": {"T": {"type": "DT_FLOAT"}}}, {"name": "PartitionedCall/strided_slice_19", "op": "StridedSlice", "input": ["PartitionedCall/cond:2", "PartitionedCall/strided_slice_19/stack", "PartitionedCall/strided_slice_19/stack", "PartitionedCall/strided_slice_19/stack_2"], "attr": {"T": {"type": "DT_FLOAT"}, "Index": {"type": "DT_INT32"}, "shrink_axis_mask": {"i": "0"}, "begin_mask": {"i": "0"}, "ellipsis_mask": {"i": "1"}, "new_axis_mask": {"i": "2"}, "end_mask": {"i": "0"}}}, {"name": "PartitionedCall/mul_10", "op": "Mul", "input": ["PartitionedCall/strided_slice_17", "PartitionedCall/strided_slice_18"], "attr": {"T": {"type": "DT_FLOAT"}}}, {"name": "PartitionedCall/add_3", "op": "AddV2", "input": ["PartitionedCall/mul_18", "PartitionedCall/truediv_7"], "attr": {"T": {"type": "DT_FLOAT"}}}, {"name": "PartitionedCall/sub_2", "op": "Sub", "input": ["PartitionedCall/mul_18", "PartitionedCall/truediv_7"], "attr": {"T": {"type": "DT_FLOAT"}}}, {"name": "PartitionedCall/truediv_6", "op": "RealDiv", "input": ["PartitionedCall/mul_10", "PartitionedCall/strided_slice_19"], "attr": {"T": {"type": "DT_FLOAT"}}}, {"name": "PartitionedCall/mul_19", "op": "Mul", "input": ["PartitionedCall/add_3", "PartitionedCall/mul_14/x"], "attr": {"T": {"type": "DT_FLOAT"}}}, {"name": "PartitionedCall/mul_22", "op": "Mul", "input": ["PartitionedCall/mul_22/x", "PartitionedCall/sub_2"], "attr": {"T": {"type": "DT_FLOAT"}}}, {"name": "PartitionedCall/mul_11", "op": "Mul", "input": ["PartitionedCall/strided_slice_20", "PartitionedCall/truediv_6"], "attr": {"T": {"type": "DT_FLOAT"}}}, {"name": "PartitionedCall/mul_12", "op": "Mul", "input": ["PartitionedCall/strided_slice_21", "PartitionedCall/truediv_6"], "attr": {"T": {"type": "DT_FLOAT"}}}, {"name": "PartitionedCall/Sum_4", "op": "Sum", "input": ["PartitionedCall/mul_11", "PartitionedCall/Sum_4/reduction_indices"], "attr": {"T": {"type": "DT_FLOAT"}, "Tidx": {"type": "DT_INT32"}, "keep_dims": {"b": false}}}, {"name": "PartitionedCall/mul_13", "op": "Mul", "input": ["PartitionedCall/mul_11", "PartitionedCall/strided_slice_22"], "attr": {"T": {"type": "DT_FLOAT"}}}, {"name": "PartitionedCall/Sum_5", "op": "Sum", "input": ["PartitionedCall/mul_12", "PartitionedCall/Sum_4/reduction_indices"], "attr": {"Tidx": {"type": "DT_INT32"}, "keep_dims": {"b": false}, "T": {"type": "DT_FLOAT"}}}, {"name": "PartitionedCall/mul_15", "op": "Mul", "input": ["PartitionedCall/mul_12", "PartitionedCall/strided_slice_22"], "attr": {"T": {"type": "DT_FLOAT"}}}, {"name": "PartitionedCall/Sum_6", "op": "Sum", "input": ["PartitionedCall/mul_13", "PartitionedCall/Sum_4/reduction_indices"], "attr": {"T": {"type": "DT_FLOAT"}, "Tidx": {"type": "DT_INT32"}, "keep_dims": {"b": false}}}, {"name": "PartitionedCall/Sum_7", "op": "Sum", "input": ["PartitionedCall/mul_15", "PartitionedCall/Sum_4/reduction_indices"], "attr": {"Tidx": {"type": "DT_INT32"}, "keep_dims": {"b": false}, "T": {"type": "DT_FLOAT"}}}, {"name": "PartitionedCall/mul_14", "op": "Mul", "input": ["PartitionedCall/Sum_6", "PartitionedCall/mul_14/x"], "attr": {"T": {"type": "DT_FLOAT"}}}, {"name": "PartitionedCall/mul_16", "op": "Mul", "input": ["PartitionedCall/Sum_7", "PartitionedCall/mul_14/x"], "attr": {"T": {"type": "DT_FLOAT"}}}, {"name": "PartitionedCall/mul_17", "op": "Mul", "input": ["PartitionedCall/mul_14", "c_mat_sn"], "attr": {"T": {"type": "DT_FLOAT"}}}, {"name": "PartitionedCall/mul_20", "op": "Mul", "input": ["PartitionedCall/mul_16", "c_mat_sn"], "attr": {"T": {"type": "DT_FLOAT"}}}, {"name": "PartitionedCall/Sum_8", "op": "Sum", "input": ["PartitionedCall/mul_17", "PartitionedCall/while_1/loop_counter"], "attr": {"Tidx": {"type": "DT_INT32"}, "keep_dims": {"b": false}, "T": {"type": "DT_FLOAT"}}}, {"name": "PartitionedCall/Sum_9", "op": "Sum", "input": ["PartitionedCall/mul_20", "PartitionedCall/while_1/loop_counter"], "attr": {"Tidx": {"type": "DT_INT32"}, "keep_dims": {"b": false}, "T": {"type": "DT_FLOAT"}}}, {"name": "PartitionedCall/add_4", "op": "AddV2", "input": ["PartitionedCall/Sum_8", "PartitionedCall/mul_19"], "attr": {"T": {"type": "DT_FLOAT"}}}, {"name": "PartitionedCall/add_5", "op": "AddV2", "input": ["PartitionedCall/Sum_9", "PartitionedCall/mul_22"], "attr": {"T": {"type": "DT_FLOAT"}}}, {"name": "PartitionedCall/while_1", "op": "StatelessWhile", "input": ["PartitionedCall/while_1/loop_counter", "PartitionedCall/while_1/maximum_iterations", "dt", "PartitionedCall/add_6", "c_mat_sn", "tolerance", "c_mat_sn", "PartitionedCall/Sum_4", "PartitionedCall/add_4", "current", "PartitionedCall/Sum_5", "dx", "PartitionedCall/add_5"], "attr": {"parallel_iterations": {"i": "10"}, "cond": {"func": {"name": "__inference_while_1_cond_848_1775_frozen"}}, "_num_original_outputs": {"i": "13"}, "body": {"func": {"name": "__inference_while_1_body_849_1581_frozen"}}, "output_shapes": {"list": {"shape": [{}, {}, {}, {}, {"dim": [{"size": "-1"}, {"size": "-1"}]}, {}, {"dim": [{"size": "-1"}, {"size": "-1"}]}, {"dim": [{"size": "-1"}, {"size": "-1"}]}, {"dim": [{"size": "-1"}]}, {}, {"dim": [{"size": "-1"}, {"size": "-1"}]}, {}, {"dim": [{"size": "-1"}]}]}}, "T": {"list": {"type": ["DT_INT32", "DT_INT32", "DT_FLOAT", "DT_FLOAT", "DT_FLOAT", "DT_FLOAT", "DT_FLOAT", "DT_FLOAT", "DT_FLOAT", "DT_FLOAT", "DT_FLOAT", "DT_FLOAT", "DT_FLOAT"]}}, "_lower_using_switch_merge": {"b": false}, "_read_only_resource_inputs": {"list": {}}}}, {"name": "Identity_2", "op": "Identity", "input": ["PartitionedCall/while_1:2"], "attr": {"T": {"type": "DT_FLOAT"}}}, {"name": "Identity_1", "op": "Identity", "input": ["PartitionedCall/while_1:4"], "attr": {"T": {"type": "DT_FLOAT"}}}], "library": {"function": [{"signature": {"name": "__inference_while_1_body_849_1581_frozen", "inputArg": [{"name": "while_1_loop_counter", "type": "DT_INT32"}, {"name": "while_1_maximum_iterations", "type": "DT_INT32"}, {"name": "placeholder", "type": "DT_FLOAT"}, {"name": "placeholder_1", "type": "DT_FLOAT"}, {"name": "placeholder_2", "type": "DT_FLOAT"}, {"name": "tolerance_0", "type": "DT_FLOAT"}, {"name": "shape_c_mat_sn_0", "type": "DT_FLOAT"}, {"name": "mul_sum_4_0", "type": "DT_FLOAT"}, {"name": "strided_slice_1_add_4_0", "type": "DT_FLOAT"}, {"name": "mul_1_current_0", "type": "DT_FLOAT"}, {"name": "strided_slice_11_sum_5_0", "type": "DT_FLOAT"}, {"name": "truediv_4_dx_0", "type": "DT_FLOAT"}, {"name": "strided_slice_17_add_5_0", "type": "DT_FLOAT"}], "outputArg": [{"name": "identity", "type": "DT_INT32"}, {"name": "identity_1", "type": "DT_INT32"}, {"name": "identity_2", "type": "DT_FLOAT"}, {"name": "identity_3", "type": "DT_FLOAT"}, {"name": "identity_4", "type": "DT_FLOAT"}, {"name": "tolerance", "type": "DT_FLOAT"}, {"name": "shape_c_mat_sn", "type": "DT_FLOAT"}, {"name": "mul_sum_4", "type": "DT_FLOAT"}, {"name": "strided_slice_1_add_4", "type": "DT_FLOAT"}, {"name": "mul_1_current", "type": "DT_FLOAT"}, {"name": "strided_slice_11_sum_5", "type": "DT_FLOAT"}, {"name": "truediv_4_dx", "type": "DT_FLOAT"}, {"name": "strided_slice_17_add_5", "type": "DT_FLOAT"}]}, "nodeDef": [{"name": "__inference_while_1_body_849_1581_frozen/mul_133/x", "op": "Const", "attr": {"value": {"tensor": {"dtype": "DT_FLOAT", "tensorShape": {}}}, "dtype": {"type": "DT_FLOAT"}}}, {"name": "__inference_while_1_body_849_1581_frozen/pow_7/y", "op": "Const", "attr": {"value": {"tensor": {"dtype": "DT_FLOAT", "tensorShape": {}}}, "dtype": {"type": "DT_FLOAT"}}}, {"name": "__inference_while_1_body_849_1581_frozen/clip_by_value/Minimum/y", "op": "Const", "attr": {"value": {"tensor": {"dtype": "DT_FLOAT", "tensorShape": {}}}, "dtype": {"type": "DT_FLOAT"}}}, {"name": "__inference_while_1_body_849_1581_frozen/clip_by_value/y", "op": "Const", "attr": {"value": {"tensor": {"dtype": "DT_FLOAT", "tensorShape": {}}}, "dtype": {"type": "DT_FLOAT"}}}, {"name": "__inference_while_1_body_849_1581_frozen/mul_126/x", "op": "Const", "attr": {"value": {"tensor": {"dtype": "DT_FLOAT", "tensorShape": {}}}, "dtype": {"type": "DT_FLOAT"}}}, {"name": "__inference_while_1_body_849_1581_frozen/mul_128/x", "op": "Const", "attr": {"value": {"tensor": {"dtype": "DT_FLOAT", "tensorShape": {}}}, "dtype": {"type": "DT_FLOAT"}}}, {"name": "__inference_while_1_body_849_1581_frozen/mul_129/x", "op": "Const", "attr": {"dtype": {"type": "DT_FLOAT"}, "value": {"tensor": {"dtype": "DT_FLOAT", "tensorShape": {}}}}}, {"name": "__inference_while_1_body_849_1581_frozen/mul_130/x", "op": "Const", "attr": {"value": {"tensor": {"dtype": "DT_FLOAT", "tensorShape": {}}}, "dtype": {"type": "DT_FLOAT"}}}, {"name": "__inference_while_1_body_849_1581_frozen/mul_131/x", "op": "Const", "attr": {"value": {"tensor": {"dtype": "DT_FLOAT", "tensorShape": {}}}, "dtype": {"type": "DT_FLOAT"}}}, {"name": "__inference_while_1_body_849_1581_frozen/mul_132/x", "op": "Const", "attr": {"value": {"tensor": {"dtype": "DT_FLOAT", "tensorShape": {}}}, "dtype": {"type": "DT_FLOAT"}}}, {"name": "__inference_while_1_body_849_1581_frozen/mul_105/x", "op": "Const", "attr": {"dtype": {"type": "DT_FLOAT"}, "value": {"tensor": {"dtype": "DT_FLOAT", "tensorShape": {}}}}}, {"name": "__inference_while_1_body_849_1581_frozen/mul_127/x", "op": "Const", "attr": {"value": {"tensor": {"dtype": "DT_FLOAT", "tensorShape": {}}}, "dtype": {"type": "DT_FLOAT"}}}, {"name": "__inference_while_1_body_849_1581_frozen/mul_107/x", "op": "Const", "attr": {"dtype": {"type": "DT_FLOAT"}, "value": {"tensor": {"dtype": "DT_FLOAT", "tensorShape": {}}}}}, {"name": "__inference_while_1_body_849_1581_frozen/mul_108/x", "op": "Const", "attr": {"value": {"tensor": {"dtype": "DT_FLOAT", "tensorShape": {}}}, "dtype": {"type": "DT_FLOAT"}}}, {"name": "__inference_while_1_body_849_1581_frozen/mul_109/x", "op": "Const", "attr": {"value": {"tensor": {"dtype": "DT_FLOAT", "tensorShape": {}}}, "dtype": {"type": "DT_FLOAT"}}}, {"name": "__inference_while_1_body_849_1581_frozen/mul_85/x", "op": "Const", "attr": {"value": {"tensor": {"dtype": "DT_FLOAT", "tensorShape": {}}}, "dtype": {"type": "DT_FLOAT"}}}, {"name": "__inference_while_1_body_849_1581_frozen/mul_86/x", "op": "Const", "attr": {"dtype": {"type": "DT_FLOAT"}, "value": {"tensor": {"dtype": "DT_FLOAT", "tensorShape": {}}}}}, {"name": "__inference_while_1_body_849_1581_frozen/mul_87/x", "op": "Const", "attr": {"dtype": {"type": "DT_FLOAT"}, "value": {"tensor": {"dtype": "DT_FLOAT", "tensorShape": {}}}}}, {"name": "__inference_while_1_body_849_1581_frozen/mul_88/x", "op": "Const", "attr": {"value": {"tensor": {"dtype": "DT_FLOAT", "tensorShape": {}}}, "dtype": {"type": "DT_FLOAT"}}}, {"name": "__inference_while_1_body_849_1581_frozen/mul_66/x", "op": "Const", "attr": {"value": {"tensor": {"dtype": "DT_FLOAT", "tensorShape": {}}}, "dtype": {"type": "DT_FLOAT"}}}, {"name": "__inference_while_1_body_849_1581_frozen/mul_67/x", "op": "Const", "attr": {"dtype": {"type": "DT_FLOAT"}, "value": {"tensor": {"dtype": "DT_FLOAT", "tensorShape": {}}}}}, {"name": "__inference_while_1_body_849_1581_frozen/mul_68/x", "op": "Const", "attr": {"value": {"tensor": {"dtype": "DT_FLOAT", "tensorShape": {}}}, "dtype": {"type": "DT_FLOAT"}}}, {"name": "__inference_while_1_body_849_1581_frozen/mul_48/x", "op": "Const", "attr": {"value": {"tensor": {"dtype": "DT_FLOAT", "tensorShape": {}}}, "dtype": {"type": "DT_FLOAT"}}}, {"name": "__inference_while_1_body_849_1581_frozen/mul_49/x", "op": "Const", "attr": {"value": {"tensor": {"dtype": "DT_FLOAT", "tensorShape": {}}}, "dtype": {"type": "DT_FLOAT"}}}, {"name": "__inference_while_1_body_849_1581_frozen/mul_31/x", "op": "Const", "attr": {"value": {"tensor": {"dtype": "DT_FLOAT", "tensorShape": {}}}, "dtype": {"type": "DT_FLOAT"}}}, {"name": "__inference_while_1_body_849_1581_frozen/Max_6/reduction_indices", "op": "Const", "attr": {"value": {"tensor": {"dtype": "DT_INT32", "tensorShape": {}}}, "dtype": {"type": "DT_INT32"}}}, {"name": "__inference_while_1_body_849_1581_frozen/mul_114/x", "op": "Const", "attr": {"value": {"tensor": {"dtype": "DT_FLOAT", "tensorShape": {}}}, "dtype": {"type": "DT_FLOAT"}}}, {"name": "__inference_while_1_body_849_1581_frozen/sub_76/x", "op": "Const", "attr": {"value": {"tensor": {"dtype": "DT_FLOAT", "tensorShape": {}}}, "dtype": {"type": "DT_FLOAT"}}}, {"name": "__inference_while_1_body_849_1581_frozen/strided_slice_195/stack", "op": "Const", "attr": {"value": {"tensor": {"dtype": "DT_INT32", "tensorShape": {"dim": [{"size": "2"}]}}}, "dtype": {"type": "DT_INT32"}}}, {"name": "__inference_while_1_body_849_1581_frozen/strided_slice_179/stack_1", "op": "Const", "attr": {"value": {"tensor": {"dtype": "DT_INT32", "tensorShape": {"dim": [{"size": "2"}]}}}, "dtype": {"type": "DT_INT32"}}}, {"name": "__inference_while_1_body_849_1581_frozen/Pad_6/paddings", "op": "Const", "attr": {"value": {"tensor": {"dtype": "DT_INT32", "tensorShape": {"dim": [{"size": "2"}, {"size": "2"}]}}}, "dtype": {"type": "DT_INT32"}}}, {"name": "__inference_while_1_body_849_1581_frozen/strided_slice_196/stack_1", "op": "Const", "attr": {"value": {"tensor": {"dtype": "DT_INT32", "tensorShape": {"dim": [{"size": "2"}]}}}, "dtype": {"type": "DT_INT32"}}}, {"name": "__inference_while_1_body_849_1581_frozen/mul_15/x", "op": "Const", "attr": {"value": {"tensor": {"dtype": "DT_FLOAT", "tensorShape": {}}}, "dtype": {"type": "DT_FLOAT"}}}, {"name": "__inference_while_1_body_849_1581_frozen/mul_32/x", "op": "Const", "attr": {"value": {"tensor": {"dtype": "DT_FLOAT", "tensorShape": {}}}, "dtype": {"type": "DT_FLOAT"}}}, {"name": "__inference_while_1_body_849_1581_frozen/mul_50/x", "op": "Const", "attr": {"value": {"tensor": {"dtype": "DT_FLOAT", "tensorShape": {}}}, "dtype": {"type": "DT_FLOAT"}}}, {"name": "__inference_while_1_body_849_1581_frozen/mul_69/x", "op": "Const", "attr": {"value": {"tensor": {"dtype": "DT_FLOAT", "tensorShape": {}}}, "dtype": {"type": "DT_FLOAT"}}}, {"name": "__inference_while_1_body_849_1581_frozen/mul_89/x", "op": "Const", "attr": {"dtype": {"type": "DT_FLOAT"}, "value": {"tensor": {"dtype": "DT_FLOAT", "tensorShape": {}}}}}, {"name": "__inference_while_1_body_849_1581_frozen/strided_slice_175/stack", "op": "Const", "attr": {"value": {"tensor": {"dtype": "DT_INT32", "tensorShape": {"dim": [{"size": "1"}]}}}, "dtype": {"type": "DT_INT32"}}}, {"name": "__inference_while_1_body_849_1581_frozen/strided_slice_175/stack_2", "op": "Const", "attr": {"value": {"tensor": {"dtype": "DT_INT32", "tensorShape": {"dim": [{"size": "1"}]}}}, "dtype": {"type": "DT_INT32"}}}, {"name": "__inference_while_1_body_849_1581_frozen/strided_slice_200/stack_1", "op": "Const", "attr": {"dtype": {"type": "DT_INT32"}, "value": {"tensor": {"dtype": "DT_INT32", "tensorShape": {"dim": [{"size": "2"}]}}}}}, {"name": "__inference_while_1_body_849_1581_frozen/strided_slice_179/stack", "op": "Const", "attr": {"value": {"tensor": {"dtype": "DT_INT32", "tensorShape": {"dim": [{"size": "2"}]}}}, "dtype": {"type": "DT_INT32"}}}, {"name": "__inference_while_1_body_849_1581_frozen/strided_slice_179/stack_2", "op": "Const", "attr": {"value": {"tensor": {"dtype": "DT_INT32", "tensorShape": {"dim": [{"size": "2"}]}}}, "dtype": {"type": "DT_INT32"}}}, {"name": "__inference_while_1_body_849_1581_frozen/concat_6/axis", "op": "Const", "attr": {"dtype": {"type": "DT_INT32"}, "value": {"tensor": {"dtype": "DT_INT32", "tensorShape": {}}}}}, {"name": "__inference_while_1_body_849_1581_frozen/mul_110/x", "op": "Const", "attr": {"value": {"tensor": {"dtype": "DT_FLOAT", "tensorShape": {}}}, "dtype": {"type": "DT_FLOAT"}}}, {"name": "__inference_while_1_body_849_1581_frozen/ExpandDims_12/dim", "op": "Const", "attr": {"dtype": {"type": "DT_INT32"}, "value": {"tensor": {"dtype": "DT_INT32", "tensorShape": {}}}}}, {"name": "mul", "op": "Mul", "input": ["mul_sum_4_0", "shape_c_mat_sn_0"], "attr": {"T": {"type": "DT_FLOAT"}}}, {"name": "mul_112", "op": "Mul", "input": ["mul_1_current_0", "mul_sum_4_0"], "attr": {"T": {"type": "DT_FLOAT"}}}, {"name": "mul_115", "op": "Mul", "input": ["__inference_while_1_body_849_1581_frozen/mul_114/x:output:0", "mul_1_current_0"], "attr": {"T": {"type": "DT_FLOAT"}}}, {"name": "strided_slice_175", "op": "StridedSlice", "input": ["strided_slice_1_add_4_0", "__inference_while_1_body_849_1581_frozen/strided_slice_175/stack:output:0", "__inference_while_1_body_849_1581_frozen/strided_slice_175/stack:output:0", "__inference_while_1_body_849_1581_frozen/strided_slice_175/stack_2:output:0"], "attr": {"Index": {"type": "DT_INT32"}, "T": {"type": "DT_FLOAT"}, "shrink_axis_mask": {"i": "0"}, "begin_mask": {"i": "0"}, "ellipsis_mask": {"i": "0"}, "new_axis_mask": {"i": "1"}, "end_mask": {"i": "0"}}}, {"name": "strided_slice_181", "op": "StridedSlice", "input": ["mul_sum_4_0", "__inference_while_1_body_849_1581_frozen/strided_slice_179/stack_1:output:0", "__inference_while_1_body_849_1581_frozen/strided_slice_179/stack:output:0", "__inference_while_1_body_849_1581_frozen/strided_slice_179/stack_2:output:0"], "attr": {"shrink_axis_mask": {"i": "0"}, "ellipsis_mask": {"i": "0"}, "begin_mask": {"i": "1"}, "new_axis_mask": {"i": "0"}, "end_mask": {"i": "3"}, "Index": {"type": "DT_INT32"}, "T": {"type": "DT_FLOAT"}}}, {"name": "strided_slice_183", "op": "StridedSlice", "input": ["mul_sum_4_0", "__inference_while_1_body_849_1581_frozen/strided_slice_179/stack:output:0", "__inference_while_1_body_849_1581_frozen/strided_slice_200/stack_1:output:0", "__inference_while_1_body_849_1581_frozen/strided_slice_179/stack_2:output:0"], "attr": {"shrink_axis_mask": {"i": "0"}, "ellipsis_mask": {"i": "0"}, "begin_mask": {"i": "3"}, "new_axis_mask": {"i": "0"}, "end_mask": {"i": "1"}, "T": {"type": "DT_FLOAT"}, "Index": {"type": "DT_INT32"}}}, {"name": "strided_slice_12", "op": "StridedSlice", "input": ["shape_c_mat_sn_0", "__inference_while_1_body_849_1581_frozen/strided_slice_179/stack_1:output:0", "__inference_while_1_body_849_1581_frozen/strided_slice_179/stack:output:0", "__inference_while_1_body_849_1581_frozen/strided_slice_179/stack_2:output:0"], "attr": {"end_mask": {"i": "3"}, "Index": {"type": "DT_INT32"}, "T": {"type": "DT_FLOAT"}, "shrink_axis_mask": {"i": "0"}, "begin_mask": {"i": "1"}, "ellipsis_mask": {"i": "0"}, "new_axis_mask": {"i": "0"}}}, {"name": "strided_slice_14", "op": "StridedSlice", "input": ["shape_c_mat_sn_0", "__inference_while_1_body_849_1581_frozen/strided_slice_179/stack:output:0", "__inference_while_1_body_849_1581_frozen/strided_slice_200/stack_1:output:0", "__inference_while_1_body_849_1581_frozen/strided_slice_179/stack_2:output:0"], "attr": {"shrink_axis_mask": {"i": "0"}, "ellipsis_mask": {"i": "0"}, "begin_mask": {"i": "3"}, "new_axis_mask": {"i": "0"}, "end_mask": {"i": "1"}, "T": {"type": "DT_FLOAT"}, "Index": {"type": "DT_INT32"}}}, {"name": "strided_slice_185", "op": "StridedSlice", "input": ["strided_slice_11_sum_5_0", "__inference_while_1_body_849_1581_frozen/strided_slice_179/stack_1:output:0", "__inference_while_1_body_849_1581_frozen/strided_slice_179/stack:output:0", "__inference_while_1_body_849_1581_frozen/strided_slice_179/stack_2:output:0"], "attr": {"shrink_axis_mask": {"i": "0"}, "begin_mask": {"i": "1"}, "ellipsis_mask": {"i": "0"}, "new_axis_mask": {"i": "0"}, "end_mask": {"i": "3"}, "Index": {"type": "DT_INT32"}, "T": {"type": "DT_FLOAT"}}}, {"name": "strided_slice_187", "op": "StridedSlice", "input": ["strided_slice_11_sum_5_0", "__inference_while_1_body_849_1581_frozen/strided_slice_179/stack:output:0", "__inference_while_1_body_849_1581_frozen/strided_slice_200/stack_1:output:0", "__inference_while_1_body_849_1581_frozen/strided_slice_179/stack_2:output:0"], "attr": {"Index": {"type": "DT_INT32"}, "T": {"type": "DT_FLOAT"}, "shrink_axis_mask": {"i": "0"}, "begin_mask": {"i": "3"}, "ellipsis_mask": {"i": "0"}, "new_axis_mask": {"i": "0"}, "end_mask": {"i": "1"}}}, {"name": "strided_slice_191", "op": "StridedSlice", "input": ["strided_slice_17_add_5_0", "__inference_while_1_body_849_1581_frozen/strided_slice_179/stack_1:output:0", "__inference_while_1_body_849_1581_frozen/strided_slice_179/stack:output:0", "__inference_while_1_body_849_1581_frozen/strided_slice_179/stack_2:output:0"], "attr": {"T": {"type": "DT_FLOAT"}, "Index": {"type": "DT_INT32"}, "shrink_axis_mask": {"i": "0"}, "begin_mask": {"i": "0"}, "ellipsis_mask": {"i": "0"}, "new_axis_mask": {"i": "1"}, "end_mask": {"i": "2"}}}, {"name": "strided_slice_192", "op": "StridedSlice", "input": ["strided_slice_17_add_5_0", "__inference_while_1_body_849_1581_frozen/strided_slice_179/stack:output:0", "__inference_while_1_body_849_1581_frozen/strided_slice_200/stack_1:output:0", "__inference_while_1_body_849_1581_frozen/strided_slice_179/stack_2:output:0"], "attr": {"T": {"type": "DT_FLOAT"}, "Index": {"type": "DT_INT32"}, "shrink_axis_mask": {"i": "0"}, "ellipsis_mask": {"i": "0"}, "begin_mask": {"i": "2"}, "new_axis_mask": {"i": "1"}, "end_mask": {"i": "0"}}}, {"name": "strided_slice_182", "op": "StridedSlice", "input": ["strided_slice_1_add_4_0", "__inference_while_1_body_849_1581_frozen/strided_slice_179/stack_1:output:0", "__inference_while_1_body_849_1581_frozen/strided_slice_179/stack:output:0", "__inference_while_1_body_849_1581_frozen/strided_slice_179/stack_2:output:0"], "attr": {"begin_mask": {"i": "0"}, "ellipsis_mask": {"i": "0"}, "new_axis_mask": {"i": "1"}, "end_mask": {"i": "2"}, "T": {"type": "DT_FLOAT"}, "Index": {"type": "DT_INT32"}, "shrink_axis_mask": {"i": "0"}}}, {"name": "strided_slice_184", "op": "StridedSlice", "input": ["strided_slice_1_add_4_0", "__inference_while_1_body_849_1581_frozen/strided_slice_179/stack:output:0", "__inference_while_1_body_849_1581_frozen/strided_slice_200/stack_1:output:0", "__inference_while_1_body_849_1581_frozen/strided_slice_179/stack_2:output:0"], "attr": {"begin_mask": {"i": "2"}, "ellipsis_mask": {"i": "0"}, "new_axis_mask": {"i": "1"}, "end_mask": {"i": "0"}, "T": {"type": "DT_FLOAT"}, "Index": {"type": "DT_INT32"}, "shrink_axis_mask": {"i": "0"}}}, {"name": "add_70", "op": "AddV2", "input": ["__inference_while_1_body_849_1581_frozen/ExpandDims_12/dim:output:0", "while_1_loop_counter"], "attr": {"T": {"type": "DT_INT32"}}}, {"name": "truediv", "op": "RealDiv", "input": ["mul:z:0", "strided_slice_175:output:0"], "attr": {"T": {"type": "DT_FLOAT"}}}, {"name": "truediv_55", "op": "RealDiv", "input": ["mul_112:z:0", "strided_slice_175:output:0"], "attr": {"T": {"type": "DT_FLOAT"}}}, {"name": "sub_5", "op": "Sub", "input": ["strided_slice_12:output:0", "strided_slice_14:output:0"], "attr": {"T": {"type": "DT_FLOAT"}}}, {"name": "mul_6", "op": "Mul", "input": ["strided_slice_12:output:0", "strided_slice_185:output:0"], "attr": {"T": {"type": "DT_FLOAT"}}}, {"name": "mul_7", "op": "Mul", "input": ["strided_slice_14:output:0", "strided_slice_187:output:0"], "attr": {"T": {"type": "DT_FLOAT"}}}, {"name": "sub_73", "op": "Sub", "input": ["strided_slice_191:output:0", "strided_slice_192:output:0"], "attr": {"T": {"type": "DT_FLOAT"}}}, {"name": "truediv_56", "op": "RealDiv", "input": ["strided_slice_181:output:0", "strided_slice_182:output:0"], "attr": {"T": {"type": "DT_FLOAT"}}}, {"name": "truediv_57", "op": "RealDiv", "input": ["strided_slice_183:output:0", "strided_slice_184:output:0"], "attr": {"T": {"type": "DT_FLOAT"}}}, {"name": "strided_slice_15", "op": "StridedSlice", "input": ["truediv:z:0", "__inference_while_1_body_849_1581_frozen/strided_slice_179/stack_1:output:0", "__inference_while_1_body_849_1581_frozen/strided_slice_179/stack:output:0", "__inference_while_1_body_849_1581_frozen/strided_slice_179/stack_2:output:0"], "attr": {"shrink_axis_mask": {"i": "0"}, "ellipsis_mask": {"i": "0"}, "begin_mask": {"i": "1"}, "new_axis_mask": {"i": "0"}, "end_mask": {"i": "3"}, "Index": {"type": "DT_INT32"}, "T": {"type": "DT_FLOAT"}}}, {"name": "strided_slice_16", "op": "StridedSlice", "input": ["truediv:z:0", "__inference_while_1_body_849_1581_frozen/strided_slice_179/stack:output:0", "__inference_while_1_body_849_1581_frozen/strided_slice_200/stack_1:output:0", "__inference_while_1_body_849_1581_frozen/strided_slice_179/stack_2:output:0"], "attr": {"shrink_axis_mask": {"i": "0"}, "begin_mask": {"i": "3"}, "ellipsis_mask": {"i": "0"}, "new_axis_mask": {"i": "0"}, "end_mask": {"i": "1"}, "Index": {"type": "DT_INT32"}, "T": {"type": "DT_FLOAT"}}}, {"name": "mul_2", "op": "Mul", "input": ["shape_c_mat_sn_0", "truediv_55:z:0"], "attr": {"T": {"type": "DT_FLOAT"}}}, {"name": "Pad", "op": "Pad", "input": ["sub_5:z:0", "__inference_while_1_body_849_1581_frozen/Pad_6/paddings:output:0"], "attr": {"T": {"type": "DT_FLOAT"}, "Tpaddings": {"type": "DT_INT32"}}}, {"name": "sub", "op": "Sub", "input": ["mul_6:z:0", "mul_7:z:0"], "attr": {"T": {"type": "DT_FLOAT"}}}, {"name": "add_58", "op": "AddV2", "input": ["truediv_56:z:0", "truediv_57:z:0"], "attr": {"T": {"type": "DT_FLOAT"}}}, {"name": "add_2", "op": "AddV2", "input": ["strided_slice_15:output:0", "strided_slice_16:output:0"], "attr": {"T": {"type": "DT_FLOAT"}}}, {"name": "strided_slice_5", "op": "StridedSlice", "input": ["mul_2:z:0", "__inference_while_1_body_849_1581_frozen/strided_slice_179/stack:output:0", "__inference_while_1_body_849_1581_frozen/strided_slice_179/stack_1:output:0", "__inference_while_1_body_849_1581_frozen/strided_slice_179/stack_2:output:0"], "attr": {"shrink_axis_mask": {"i": "2"}, "begin_mask": {"i": "1"}, "ellipsis_mask": {"i": "0"}, "new_axis_mask": {"i": "0"}, "end_mask": {"i": "1"}, "Index": {"type": "DT_INT32"}, "T": {"type": "DT_FLOAT"}}}, {"name": "strided_slice_3", "op": "StridedSlice", "input": ["mul_2:z:0", "__inference_while_1_body_849_1581_frozen/strided_slice_179/stack_1:output:0", "__inference_while_1_body_849_1581_frozen/strided_slice_179/stack:output:0", "__inference_while_1_body_849_1581_frozen/strided_slice_179/stack_2:output:0"], "attr": {"Index": {"type": "DT_INT32"}, "T": {"type": "DT_FLOAT"}, "shrink_axis_mask": {"i": "0"}, "ellipsis_mask": {"i": "0"}, "begin_mask": {"i": "1"}, "new_axis_mask": {"i": "0"}, "end_mask": {"i": "3"}}}, {"name": "strided_slice_4", "op": "StridedSlice", "input": ["mul_2:z:0", "__inference_while_1_body_849_1581_frozen/strided_slice_179/stack:output:0", "__inference_while_1_body_849_1581_frozen/strided_slice_200/stack_1:output:0", "__inference_while_1_body_849_1581_frozen/strided_slice_179/stack_2:output:0"], "attr": {"shrink_axis_mask": {"i": "0"}, "begin_mask": {"i": "3"}, "ellipsis_mask": {"i": "0"}, "new_axis_mask": {"i": "0"}, "end_mask": {"i": "1"}, "Index": {"type": "DT_INT32"}, "T": {"type": "DT_FLOAT"}}}, {"name": "strided_slice_6", "op": "StridedSlice", "input": ["mul_2:z:0", "__inference_while_1_body_849_1581_frozen/strided_slice_200/stack_1:output:0", "__inference_while_1_body_849_1581_frozen/strided_slice_179/stack:output:0", "__inference_while_1_body_849_1581_frozen/strided_slice_179/stack_2:output:0"], "attr": {"shrink_axis_mask": {"i": "2"}, "ellipsis_mask": {"i": "0"}, "begin_mask": {"i": "1"}, "new_axis_mask": {"i": "0"}, "end_mask": {"i": "1"}, "T": {"type": "DT_FLOAT"}, "Index": {"type": "DT_INT32"}}}, {"name": "strided_slice_21", "op": "StridedSlice", "input": ["Pad:output:0", "__inference_while_1_body_849_1581_frozen/strided_slice_195/stack:output:0", "__inference_while_1_body_849_1581_frozen/strided_slice_179/stack:output:0", "__inference_while_1_body_849_1581_frozen/strided_slice_179/stack_2:output:0"], "attr": {"T": {"type": "DT_FLOAT"}, "Index": {"type": "DT_INT32"}, "shrink_axis_mask": {"i": "0"}, "ellipsis_mask": {"i": "0"}, "begin_mask": {"i": "1"}, "new_axis_mask": {"i": "0"}, "end_mask": {"i": "3"}}}, {"name": "strided_slice_22", "op": "StridedSlice", "input": ["Pad:output:0", "__inference_while_1_body_849_1581_frozen/strided_slice_179/stack:output:0", "__inference_while_1_body_849_1581_frozen/strided_slice_196/stack_1:output:0", "__inference_while_1_body_849_1581_frozen/strided_slice_179/stack_2:output:0"], "attr": {"end_mask": {"i": "1"}, "Index": {"type": "DT_INT32"}, "T": {"type": "DT_FLOAT"}, "shrink_axis_mask": {"i": "0"}, "ellipsis_mask": {"i": "0"}, "begin_mask": {"i": "3"}, "new_axis_mask": {"i": "0"}}}, {"name": "truediv_4", "op": "RealDiv", "input": ["sub:z:0", "truediv_4_dx_0"], "attr": {"T": {"type": "DT_FLOAT"}}}, {"name": "mul_116", "op": "Mul", "input": ["add_58:z:0", "mul_115:z:0"], "attr": {"T": {"type": "DT_FLOAT"}}}, {"name": "mul_8", "op": "Mul", "input": ["add_2:z:0", "__inference_while_1_body_849_1581_frozen/mul_114/x:output:0"], "attr": {"T": {"type": "DT_FLOAT"}}}, {"name": "add", "op": "AddV2", "input": ["strided_slice_3:output:0", "strided_slice_4:output:0"], "attr": {"T": {"type": "DT_FLOAT"}}}, {"name": "Abs_1", "op": "Abs", "input": ["strided_slice_21:output:0"], "attr": {"T": {"type": "DT_FLOAT"}}}, {"name": "add_4", "op": "AddV2", "input": ["strided_slice_21:output:0", "strided_slice_22:output:0"], "attr": {"T": {"type": "DT_FLOAT"}}}, {"name": "sub_3", "op": "Sub", "input": ["strided_slice_21:output:0", "strided_slice_22:output:0"], "attr": {"T": {"type": "DT_FLOAT"}}}, {"name": "Abs_2", "op": "Abs", "input": ["strided_slice_22:output:0"], "attr": {"T": {"type": "DT_FLOAT"}}}, {"name": "Abs_24", "op": "Abs", "input": ["mul_116:z:0"], "attr": {"T": {"type": "DT_FLOAT"}}}, {"name": "mul_9", "op": "Mul", "input": ["mul_8:z:0", "sub_73:z:0"], "attr": {"T": {"type": "DT_FLOAT"}}}, {"name": "mul_3", "op": "Mul", "input": ["add:z:0", "__inference_while_1_body_849_1581_frozen/mul_114/x:output:0"], "attr": {"T": {"type": "DT_FLOAT"}}}, {"name": "add_3", "op": "AddV2", "input": ["Abs_1:y:0", "Abs_2:y:0"], "attr": {"T": {"type": "DT_FLOAT"}}}, {"name": "Max_6", "op": "Max", "input": ["Abs_24:y:0", "__inference_while_1_body_849_1581_frozen/Max_6/reduction_indices:output:0"], "attr": {"T": {"type": "DT_FLOAT"}, "keep_dims": {"b": true}, "Tidx": {"type": "DT_INT32"}}}, {"name": "truediv_5", "op": "RealDiv", "input": ["mul_9:z:0", "truediv_4_dx_0"], "attr": {"T": {"type": "DT_FLOAT"}}}, {"name": "div_no_nan", "op": "DivNoNan", "input": ["sub_3:z:0", "add_3:z:0"], "attr": {"T": {"type": "DT_FLOAT"}}}, {"name": "mul_123", "op": "Mul", "input": ["Max_6:output:0", "__inference_while_1_body_849_1581_frozen/mul_114/x:output:0"], "attr": {"T": {"type": "DT_FLOAT"}}}, {"name": "sub_7", "op": "Sub", "input": ["truediv_5:z:0", "truediv_4:z:0"], "attr": {"T": {"type": "DT_FLOAT"}}}, {"name": "Abs_3", "op": "Abs", "input": ["div_no_nan:z:0"], "attr": {"T": {"type": "DT_FLOAT"}}}, {"name": "add_5", "op": "AddV2", "input": ["mul_3:z:0", "sub_7:z:0"], "attr": {"T": {"type": "DT_FLOAT"}}}, {"name": "pow", "op": "Square", "input": ["Abs_3:y:0"], "attr": {"T": {"type": "DT_FLOAT"}}}, {"name": "sub_4", "op": "Sub", "input": ["__inference_while_1_body_849_1581_frozen/sub_76/x:output:0", "pow:y:0"], "attr": {"T": {"type": "DT_FLOAT"}}}, {"name": "mul_10", "op": "Mul", "input": ["__inference_while_1_body_849_1581_frozen/mul_114/x:output:0", "sub_4:z:0"], "attr": {"T": {"type": "DT_FLOAT"}}}, {"name": "mul_11", "op": "Mul", "input": ["add_4:z:0", "mul_10:z:0"], "attr": {"T": {"type": "DT_FLOAT"}}}, {"name": "sub_6", "op": "Sub", "input": ["sub_5:z:0", "mul_11:z:0"], "attr": {"T": {"type": "DT_FLOAT"}}}, {"name": "mul_13", "op": "Mul", "input": ["mul_123:z:0", "sub_6:z:0"], "attr": {"T": {"type": "DT_FLOAT"}}}, {"name": "sub_8", "op": "Sub", "input": ["add_5:z:0", "mul_13:z:0"], "attr": {"T": {"type": "DT_FLOAT"}}}, {"name": "strided_slice_27", "op": "StridedSlice", "input": ["sub_8:z:0", "__inference_while_1_body_849_1581_frozen/strided_slice_179/stack:output:0", "__inference_while_1_body_849_1581_frozen/strided_slice_179/stack_1:output:0", "__inference_while_1_body_849_1581_frozen/strided_slice_179/stack_2:output:0"], "attr": {"begin_mask": {"i": "1"}, "ellipsis_mask": {"i": "0"}, "new_axis_mask": {"i": "0"}, "end_mask": {"i": "1"}, "T": {"type": "DT_FLOAT"}, "Index": {"type": "DT_INT32"}, "shrink_axis_mask": {"i": "2"}}}, {"name": "strided_slice_25", "op": "StridedSlice", "input": ["sub_8:z:0", "__inference_while_1_body_849_1581_frozen/strided_slice_179/stack_1:output:0", "__inference_while_1_body_849_1581_frozen/strided_slice_179/stack:output:0", "__inference_while_1_body_849_1581_frozen/strided_slice_179/stack_2:output:0"], "attr": {"ellipsis_mask": {"i": "0"}, "begin_mask": {"i": "1"}, "new_axis_mask": {"i": "0"}, "end_mask": {"i": "3"}, "Index": {"type": "DT_INT32"}, "T": {"type": "DT_FLOAT"}, "shrink_axis_mask": {"i": "0"}}}, {"name": "strided_slice_26", "op": "StridedSlice", "input": ["sub_8:z:0", "__inference_while_1_body_849_1581_frozen/strided_slice_179/stack:output:0", "__inference_while_1_body_849_1581_frozen/strided_slice_200/stack_1:output:0", "__inference_while_1_body_849_1581_frozen/strided_slice_179/stack_2:output:0"], "attr": {"end_mask": {"i": "1"}, "T": {"type": "DT_FLOAT"}, "Index": {"type": "DT_INT32"}, "shrink_axis_mask": {"i": "0"}, "ellipsis_mask": {"i": "0"}, "begin_mask": {"i": "3"}, "new_axis_mask": {"i": "0"}}}, {"name": "strided_slice_28", "op": "StridedSlice", "input": ["sub_8:z:0", "__inference_while_1_body_849_1581_frozen/strided_slice_200/stack_1:output:0", "__inference_while_1_body_849_1581_frozen/strided_slice_179/stack:output:0", "__inference_while_1_body_849_1581_frozen/strided_slice_179/stack_2:output:0"], "attr": {"end_mask": {"i": "1"}, "T": {"type": "DT_FLOAT"}, "Index": {"type": "DT_INT32"}, "shrink_axis_mask": {"i": "2"}, "begin_mask": {"i": "1"}, "ellipsis_mask": {"i": "0"}, "new_axis_mask": {"i": "0"}}}, {"name": "sub_10", "op": "Sub", "input": ["strided_slice_5:output:0", "strided_slice_27:output:0"], "attr": {"T": {"type": "DT_FLOAT"}}}, {"name": "sub_9", "op": "Sub", "input": ["strided_slice_25:output:0", "strided_slice_26:output:0"], "attr": {"T": {"type": "DT_FLOAT"}}}, {"name": "sub_11", "op": "Sub", "input": ["strided_slice_28:output:0", "strided_slice_6:output:0"], "attr": {"T": {"type": "DT_FLOAT"}}}, {"name": "truediv_7", "op": "RealDiv", "input": ["sub_10:z:0", "truediv_4_dx_0"], "attr": {"T": {"type": "DT_FLOAT"}}}, {"name": "Neg", "op": "Neg", "input": ["sub_9:z:0"], "attr": {"T": {"type": "DT_FLOAT"}}}, {"name": "truediv_8", "op": "RealDiv", "input": ["sub_11:z:0", "truediv_4_dx_0"], "attr": {"T": {"type": "DT_FLOAT"}}}, {"name": "ExpandDims", "op": "ExpandDims", "input": ["truediv_7:z:0", "__inference_while_1_body_849_1581_frozen/ExpandDims_12/dim:output:0"], "attr": {"Tdim": {"type": "DT_INT32"}, "T": {"type": "DT_FLOAT"}}}, {"name": "truediv_6", "op": "RealDiv", "input": ["Neg:y:0", "truediv_4_dx_0"], "attr": {"T": {"type": "DT_FLOAT"}}}, {"name": "ExpandDims_1", "op": "ExpandDims", "input": ["truediv_8:z:0", "__inference_while_1_body_849_1581_frozen/ExpandDims_12/dim:output:0"], "attr": {"Tdim": {"type": "DT_INT32"}, "T": {"type": "DT_FLOAT"}}}, {"name": "concat", "op": "ConcatV2", "input": ["ExpandDims:output:0", "truediv_6:z:0", "ExpandDims_1:output:0", "__inference_while_1_body_849_1581_frozen/concat_6/axis:output:0"], "attr": {"T": {"type": "DT_FLOAT"}, "N": {"i": "3"}, "Tidx": {"type": "DT_INT32"}}}, {"name": "mul_14", "op": "Mul", "input": ["concat:output:0", "placeholder"], "attr": {"T": {"type": "DT_FLOAT"}}}, {"name": "mul_126", "op": "Mul", "input": ["__inference_while_1_body_849_1581_frozen/mul_126/x:output:0", "mul_14:z:0"], "attr": {"T": {"type": "DT_FLOAT"}}}, {"name": "mul_105", "op": "Mul", "input": ["__inference_while_1_body_849_1581_frozen/mul_105/x:output:0", "mul_14:z:0"], "attr": {"T": {"type": "DT_FLOAT"}}}, {"name": "mul_85", "op": "Mul", "input": ["mul_14:z:0", "__inference_while_1_body_849_1581_frozen/mul_85/x:output:0"], "attr": {"T": {"type": "DT_FLOAT"}}}, {"name": "mul_66", "op": "Mul", "input": ["mul_14:z:0", "__inference_while_1_body_849_1581_frozen/mul_66/x:output:0"], "attr": {"T": {"type": "DT_FLOAT"}}}, {"name": "mul_48", "op": "Mul", "input": ["mul_14:z:0", "__inference_while_1_body_849_1581_frozen/mul_48/x:output:0"], "attr": {"T": {"type": "DT_FLOAT"}}}, {"name": "mul_31", "op": "Mul", "input": ["mul_14:z:0", "__inference_while_1_body_849_1581_frozen/mul_31/x:output:0"], "attr": {"T": {"type": "DT_FLOAT"}}}, {"name": "mul_15", "op": "Mul", "input": ["mul_14:z:0", "__inference_while_1_body_849_1581_frozen/mul_15/x:output:0"], "attr": {"T": {"type": "DT_FLOAT"}}}, {"name": "add_6", "op": "AddV2", "input": ["mul_15:z:0", "shape_c_mat_sn_0"], "attr": {"T": {"type": "DT_FLOAT"}}}, {"name": "mul_16", "op": "Mul", "input": ["add_6:z:0", "mul_sum_4_0"], "attr": {"T": {"type": "DT_FLOAT"}}}, {"name": "strided_slice_41", "op": "StridedSlice", "input": ["add_6:z:0", "__inference_while_1_body_849_1581_frozen/strided_slice_179/stack_1:output:0", "__inference_while_1_body_849_1581_frozen/strided_slice_179/stack:output:0", "__inference_while_1_body_849_1581_frozen/strided_slice_179/stack_2:output:0"], "attr": {"begin_mask": {"i": "1"}, "ellipsis_mask": {"i": "0"}, "new_axis_mask": {"i": "0"}, "end_mask": {"i": "3"}, "T": {"type": "DT_FLOAT"}, "Index": {"type": "DT_INT32"}, "shrink_axis_mask": {"i": "0"}}}, {"name": "strided_slice_43", "op": "StridedSlice", "input": ["add_6:z:0", "__inference_while_1_body_849_1581_frozen/strided_slice_179/stack:output:0", "__inference_while_1_body_849_1581_frozen/strided_slice_200/stack_1:output:0", "__inference_while_1_body_849_1581_frozen/strided_slice_179/stack_2:output:0"], "attr": {"ellipsis_mask": {"i": "0"}, "begin_mask": {"i": "3"}, "new_axis_mask": {"i": "0"}, "end_mask": {"i": "1"}, "T": {"type": "DT_FLOAT"}, "Index": {"type": "DT_INT32"}, "shrink_axis_mask": {"i": "0"}}}, {"name": "mul_18", "op": "Mul", "input": ["add_6:z:0", "truediv_55:z:0"], "attr": {"T": {"type": "DT_FLOAT"}}}, {"name": "truediv_9", "op": "RealDiv", "input": ["mul_16:z:0", "strided_slice_175:output:0"], "attr": {"T": {"type": "DT_FLOAT"}}}, {"name": "mul_22", "op": "Mul", "input": ["strided_slice_185:output:0", "strided_slice_41:output:0"], "attr": {"T": {"type": "DT_FLOAT"}}}, {"name": "mul_23", "op": "Mul", "input": ["strided_slice_187:output:0", "strided_slice_43:output:0"], "attr": {"T": {"type": "DT_FLOAT"}}}, {"name": "sub_17", "op": "Sub", "input": ["strided_slice_41:output:0", "strided_slice_43:output:0"], "attr": {"T": {"type": "DT_FLOAT"}}}, {"name": "strided_slice_34", "op": "StridedSlice", "input": ["mul_18:z:0", "__inference_while_1_body_849_1581_frozen/strided_slice_179/stack:output:0", "__inference_while_1_body_849_1581_frozen/strided_slice_179/stack_1:output:0", "__inference_while_1_body_849_1581_frozen/strided_slice_179/stack_2:output:0"], "attr": {"shrink_axis_mask": {"i": "2"}, "begin_mask": {"i": "1"}, "ellipsis_mask": {"i": "0"}, "new_axis_mask": {"i": "0"}, "end_mask": {"i": "1"}, "Index": {"type": "DT_INT32"}, "T": {"type": "DT_FLOAT"}}}, {"name": "strided_slice_32", "op": "StridedSlice", "input": ["mul_18:z:0", "__inference_while_1_body_849_1581_frozen/strided_slice_179/stack_1:output:0", "__inference_while_1_body_849_1581_frozen/strided_slice_179/stack:output:0", "__inference_while_1_body_849_1581_frozen/strided_slice_179/stack_2:output:0"], "attr": {"T": {"type": "DT_FLOAT"}, "Index": {"type": "DT_INT32"}, "shrink_axis_mask": {"i": "0"}, "begin_mask": {"i": "1"}, "ellipsis_mask": {"i": "0"}, "new_axis_mask": {"i": "0"}, "end_mask": {"i": "3"}}}, {"name": "strided_slice_33", "op": "StridedSlice", "input": ["mul_18:z:0", "__inference_while_1_body_849_1581_frozen/strided_slice_179/stack:output:0", "__inference_while_1_body_849_1581_frozen/strided_slice_200/stack_1:output:0", "__inference_while_1_body_849_1581_frozen/strided_slice_179/stack_2:output:0"], "attr": {"Index": {"type": "DT_INT32"}, "T": {"type": "DT_FLOAT"}, "shrink_axis_mask": {"i": "0"}, "begin_mask": {"i": "3"}, "ellipsis_mask": {"i": "0"}, "new_axis_mask": {"i": "0"}, "end_mask": {"i": "1"}}}, {"name": "strided_slice_35", "op": "StridedSlice", "input": ["mul_18:z:0", "__inference_while_1_body_849_1581_frozen/strided_slice_200/stack_1:output:0", "__inference_while_1_body_849_1581_frozen/strided_slice_179/stack:output:0", "__inference_while_1_body_849_1581_frozen/strided_slice_179/stack_2:output:0"], "attr": {"T": {"type": "DT_FLOAT"}, "Index": {"type": "DT_INT32"}, "shrink_axis_mask": {"i": "2"}, "begin_mask": {"i": "1"}, "ellipsis_mask": {"i": "0"}, "new_axis_mask": {"i": "0"}, "end_mask": {"i": "1"}}}, {"name": "strided_slice_44", "op": "StridedSlice", "input": ["truediv_9:z:0", "__inference_while_1_body_849_1581_frozen/strided_slice_179/stack_1:output:0", "__inference_while_1_body_849_1581_frozen/strided_slice_179/stack:output:0", "__inference_while_1_body_849_1581_frozen/strided_slice_179/stack_2:output:0"], "attr": {"shrink_axis_mask": {"i": "0"}, "ellipsis_mask": {"i": "0"}, "begin_mask": {"i": "1"}, "new_axis_mask": {"i": "0"}, "end_mask": {"i": "3"}, "Index": {"type": "DT_INT32"}, "T": {"type": "DT_FLOAT"}}}, {"name": "strided_slice_45", "op": "StridedSlice", "input": ["truediv_9:z:0", "__inference_while_1_body_849_1581_frozen/strided_slice_179/stack:output:0", "__inference_while_1_body_849_1581_frozen/strided_slice_200/stack_1:output:0", "__inference_while_1_body_849_1581_frozen/strided_slice_179/stack_2:output:0"], "attr": {"Index": {"type": "DT_INT32"}, "T": {"type": "DT_FLOAT"}, "shrink_axis_mask": {"i": "0"}, "ellipsis_mask": {"i": "0"}, "begin_mask": {"i": "3"}, "new_axis_mask": {"i": "0"}, "end_mask": {"i": "1"}}}, {"name": "sub_12", "op": "Sub", "input": ["mul_22:z:0", "mul_23:z:0"], "attr": {"T": {"type": "DT_FLOAT"}}}, {"name": "Pad_1", "op": "Pad", "input": ["sub_17:z:0", "__inference_while_1_body_849_1581_frozen/Pad_6/paddings:output:0"], "attr": {"T": {"type": "DT_FLOAT"}, "Tpaddings": {"type": "DT_INT32"}}}, {"name": "add_7", "op": "AddV2", "input": ["strided_slice_32:output:0", "strided_slice_33:output:0"], "attr": {"T": {"type": "DT_FLOAT"}}}, {"name": "add_9", "op": "AddV2", "input": ["strided_slice_44:output:0", "strided_slice_45:output:0"], "attr": {"T": {"type": "DT_FLOAT"}}}, {"name": "truediv_13", "op": "RealDiv", "input": ["sub_12:z:0", "truediv_4_dx_0"], "attr": {"T": {"type": "DT_FLOAT"}}}, {"name": "strided_slice_50", "op": "StridedSlice", "input": ["Pad_1:output:0", "__inference_while_1_body_849_1581_frozen/strided_slice_195/stack:output:0", "__inference_while_1_body_849_1581_frozen/strided_slice_179/stack:output:0", "__inference_while_1_body_849_1581_frozen/strided_slice_179/stack_2:output:0"], "attr": {"Index": {"type": "DT_INT32"}, "T": {"type": "DT_FLOAT"}, "shrink_axis_mask": {"i": "0"}, "begin_mask": {"i": "1"}, "ellipsis_mask": {"i": "0"}, "new_axis_mask": {"i": "0"}, "end_mask": {"i": "3"}}}, {"name": "strided_slice_51", "op": "StridedSlice", "input": ["Pad_1:output:0", "__inference_while_1_body_849_1581_frozen/strided_slice_179/stack:output:0", "__inference_while_1_body_849_1581_frozen/strided_slice_196/stack_1:output:0", "__inference_while_1_body_849_1581_frozen/strided_slice_179/stack_2:output:0"], "attr": {"shrink_axis_mask": {"i": "0"}, "begin_mask": {"i": "3"}, "ellipsis_mask": {"i": "0"}, "new_axis_mask": {"i": "0"}, "end_mask": {"i": "1"}, "T": {"type": "DT_FLOAT"}, "Index": {"type": "DT_INT32"}}}, {"name": "mul_19", "op": "Mul", "input": ["add_7:z:0", "__inference_while_1_body_849_1581_frozen/mul_114/x:output:0"], "attr": {"T": {"type": "DT_FLOAT"}}}, {"name": "mul_24", "op": "Mul", "input": ["add_9:z:0", "__inference_while_1_body_849_1581_frozen/mul_114/x:output:0"], "attr": {"T": {"type": "DT_FLOAT"}}}, {"name": "Abs_5", "op": "Abs", "input": ["strided_slice_50:output:0"], "attr": {"T": {"type": "DT_FLOAT"}}}, {"name": "add_11", "op": "AddV2", "input": ["strided_slice_50:output:0", "strided_slice_51:output:0"], "attr": {"T": {"type": "DT_FLOAT"}}}, {"name": "sub_15", "op": "Sub", "input": ["strided_slice_50:output:0", "strided_slice_51:output:0"], "attr": {"T": {"type": "DT_FLOAT"}}}, {"name": "Abs_6", "op": "Abs", "input": ["strided_slice_51:output:0"], "attr": {"T": {"type": "DT_FLOAT"}}}, {"name": "mul_25", "op": "Mul", "input": ["mul_24:z:0", "sub_73:z:0"], "attr": {"T": {"type": "DT_FLOAT"}}}, {"name": "add_10", "op": "AddV2", "input": ["Abs_5:y:0", "Abs_6:y:0"], "attr": {"T": {"type": "DT_FLOAT"}}}, {"name": "truediv_14", "op": "RealDiv", "input": ["mul_25:z:0", "truediv_4_dx_0"], "attr": {"T": {"type": "DT_FLOAT"}}}, {"name": "div_no_nan_1", "op": "DivNoNan", "input": ["sub_15:z:0", "add_10:z:0"], "attr": {"T": {"type": "DT_FLOAT"}}}, {"name": "sub_19", "op": "Sub", "input": ["truediv_14:z:0", "truediv_13:z:0"], "attr": {"T": {"type": "DT_FLOAT"}}}, {"name": "Abs_7", "op": "Abs", "input": ["div_no_nan_1:z:0"], "attr": {"T": {"type": "DT_FLOAT"}}}, {"name": "add_12", "op": "AddV2", "input": ["mul_19:z:0", "sub_19:z:0"], "attr": {"T": {"type": "DT_FLOAT"}}}, {"name": "pow_1", "op": "Square", "input": ["Abs_7:y:0"], "attr": {"T": {"type": "DT_FLOAT"}}}, {"name": "sub_16", "op": "Sub", "input": ["__inference_while_1_body_849_1581_frozen/sub_76/x:output:0", "pow_1:y:0"], "attr": {"T": {"type": "DT_FLOAT"}}}, {"name": "mul_26", "op": "Mul", "input": ["__inference_while_1_body_849_1581_frozen/mul_114/x:output:0", "sub_16:z:0"], "attr": {"T": {"type": "DT_FLOAT"}}}, {"name": "mul_27", "op": "Mul", "input": ["add_11:z:0", "mul_26:z:0"], "attr": {"T": {"type": "DT_FLOAT"}}}, {"name": "sub_18", "op": "Sub", "input": ["sub_17:z:0", "mul_27:z:0"], "attr": {"T": {"type": "DT_FLOAT"}}}, {"name": "mul_29", "op": "Mul", "input": ["mul_123:z:0", "sub_18:z:0"], "attr": {"T": {"type": "DT_FLOAT"}}}, {"name": "sub_20", "op": "Sub", "input": ["add_12:z:0", "mul_29:z:0"], "attr": {"T": {"type": "DT_FLOAT"}}}, {"name": "strided_slice_56", "op": "StridedSlice", "input": ["sub_20:z:0", "__inference_while_1_body_849_1581_frozen/strided_slice_179/stack:output:0", "__inference_while_1_body_849_1581_frozen/strided_slice_179/stack_1:output:0", "__inference_while_1_body_849_1581_frozen/strided_slice_179/stack_2:output:0"], "attr": {"shrink_axis_mask": {"i": "2"}, "begin_mask": {"i": "1"}, "ellipsis_mask": {"i": "0"}, "new_axis_mask": {"i": "0"}, "end_mask": {"i": "1"}, "Index": {"type": "DT_INT32"}, "T": {"type": "DT_FLOAT"}}}, {"name": "strided_slice_54", "op": "StridedSlice", "input": ["sub_20:z:0", "__inference_while_1_body_849_1581_frozen/strided_slice_179/stack_1:output:0", "__inference_while_1_body_849_1581_frozen/strided_slice_179/stack:output:0", "__inference_while_1_body_849_1581_frozen/strided_slice_179/stack_2:output:0"], "attr": {"shrink_axis_mask": {"i": "0"}, "ellipsis_mask": {"i": "0"}, "begin_mask": {"i": "1"}, "new_axis_mask": {"i": "0"}, "end_mask": {"i": "3"}, "Index": {"type": "DT_INT32"}, "T": {"type": "DT_FLOAT"}}}, {"name": "strided_slice_55", "op": "StridedSlice", "input": ["sub_20:z:0", "__inference_while_1_body_849_1581_frozen/strided_slice_179/stack:output:0", "__inference_while_1_body_849_1581_frozen/strided_slice_200/stack_1:output:0", "__inference_while_1_body_849_1581_frozen/strided_slice_179/stack_2:output:0"], "attr": {"Index": {"type": "DT_INT32"}, "T": {"type": "DT_FLOAT"}, "shrink_axis_mask": {"i": "0"}, "begin_mask": {"i": "3"}, "ellipsis_mask": {"i": "0"}, "new_axis_mask": {"i": "0"}, "end_mask": {"i": "1"}}}, {"name": "strided_slice_57", "op": "StridedSlice", "input": ["sub_20:z:0", "__inference_while_1_body_849_1581_frozen/strided_slice_200/stack_1:output:0", "__inference_while_1_body_849_1581_frozen/strided_slice_179/stack:output:0", "__inference_while_1_body_849_1581_frozen/strided_slice_179/stack_2:output:0"], "attr": {"T": {"type": "DT_FLOAT"}, "Index": {"type": "DT_INT32"}, "shrink_axis_mask": {"i": "2"}, "begin_mask": {"i": "1"}, "ellipsis_mask": {"i": "0"}, "new_axis_mask": {"i": "0"}, "end_mask": {"i": "1"}}}, {"name": "sub_22", "op": "Sub", "input": ["strided_slice_34:output:0", "strided_slice_56:output:0"], "attr": {"T": {"type": "DT_FLOAT"}}}, {"name": "sub_21", "op": "Sub", "input": ["strided_slice_54:output:0", "strided_slice_55:output:0"], "attr": {"T": {"type": "DT_FLOAT"}}}, {"name": "sub_23", "op": "Sub", "input": ["strided_slice_57:output:0", "strided_slice_35:output:0"], "attr": {"T": {"type": "DT_FLOAT"}}}, {"name": "truediv_16", "op": "RealDiv", "input": ["sub_22:z:0", "truediv_4_dx_0"], "attr": {"T": {"type": "DT_FLOAT"}}}, {"name": "Neg_1", "op": "Neg", "input": ["sub_21:z:0"], "attr": {"T": {"type": "DT_FLOAT"}}}, {"name": "truediv_17", "op": "RealDiv", "input": ["sub_23:z:0", "truediv_4_dx_0"], "attr": {"T": {"type": "DT_FLOAT"}}}, {"name": "ExpandDims_2", "op": "ExpandDims", "input": ["truediv_16:z:0", "__inference_while_1_body_849_1581_frozen/ExpandDims_12/dim:output:0"], "attr": {"T": {"type": "DT_FLOAT"}, "Tdim": {"type": "DT_INT32"}}}, {"name": "truediv_15", "op": "RealDiv", "input": ["Neg_1:y:0", "truediv_4_dx_0"], "attr": {"T": {"type": "DT_FLOAT"}}}, {"name": "ExpandDims_3", "op": "ExpandDims", "input": ["truediv_17:z:0", "__inference_while_1_body_849_1581_frozen/ExpandDims_12/dim:output:0"], "attr": {"T": {"type": "DT_FLOAT"}, "Tdim": {"type": "DT_INT32"}}}, {"name": "concat_1", "op": "ConcatV2", "input": ["ExpandDims_2:output:0", "truediv_15:z:0", "ExpandDims_3:output:0", "__inference_while_1_body_849_1581_frozen/concat_6/axis:output:0"], "attr": {"N": {"i": "3"}, "Tidx": {"type": "DT_INT32"}, "T": {"type": "DT_FLOAT"}}}, {"name": "mul_30", "op": "Mul", "input": ["concat_1:output:0", "placeholder"], "attr": {"T": {"type": "DT_FLOAT"}}}, {"name": "mul_127", "op": "Mul", "input": ["__inference_while_1_body_849_1581_frozen/mul_127/x:output:0", "mul_30:z:0"], "attr": {"T": {"type": "DT_FLOAT"}}}, {"name": "mul_86", "op": "Mul", "input": ["mul_30:z:0", "__inference_while_1_body_849_1581_frozen/mul_86/x:output:0"], "attr": {"T": {"type": "DT_FLOAT"}}}, {"name": "mul_67", "op": "Mul", "input": ["mul_30:z:0", "__inference_while_1_body_849_1581_frozen/mul_67/x:output:0"], "attr": {"T": {"type": "DT_FLOAT"}}}, {"name": "mul_49", "op": "Mul", "input": ["mul_30:z:0", "__inference_while_1_body_849_1581_frozen/mul_49/x:output:0"], "attr": {"T": {"type": "DT_FLOAT"}}}, {"name": "mul_32", "op": "Mul", "input": ["mul_30:z:0", "__inference_while_1_body_849_1581_frozen/mul_32/x:output:0"], "attr": {"T": {"type": "DT_FLOAT"}}}, {"name": "add_63", "op": "AddV2", "input": ["mul_126:z:0", "mul_127:z:0"], "attr": {"T": {"type": "DT_FLOAT"}}}, {"name": "add_51", "op": "AddV2", "input": ["mul_105:z:0", "mul_127:z:0"], "attr": {"T": {"type": "DT_FLOAT"}}}, {"name": "add_40", "op": "AddV2", "input": ["mul_85:z:0", "mul_86:z:0"], "attr": {"T": {"type": "DT_FLOAT"}}}, {"name": "add_30", "op": "AddV2", "input": ["mul_66:z:0", "mul_67:z:0"], "attr": {"T": {"type": "DT_FLOAT"}}}, {"name": "add_21", "op": "AddV2", "input": ["mul_48:z:0", "mul_49:z:0"], "attr": {"T": {"type": "DT_FLOAT"}}}, {"name": "add_13", "op": "AddV2", "input": ["mul_31:z:0", "mul_32:z:0"], "attr": {"T": {"type": "DT_FLOAT"}}}, {"name": "add_14", "op": "AddV2", "input": ["add_13:z:0", "shape_c_mat_sn_0"], "attr": {"T": {"type": "DT_FLOAT"}}}, {"name": "mul_33", "op": "Mul", "input": ["add_14:z:0", "mul_sum_4_0"], "attr": {"T": {"type": "DT_FLOAT"}}}, {"name": "strided_slice_70", "op": "StridedSlice", "input": ["add_14:z:0", "__inference_while_1_body_849_1581_frozen/strided_slice_179/stack_1:output:0", "__inference_while_1_body_849_1581_frozen/strided_slice_179/stack:output:0", "__inference_while_1_body_849_1581_frozen/strided_slice_179/stack_2:output:0"], "attr": {"begin_mask": {"i": "1"}, "ellipsis_mask": {"i": "0"}, "new_axis_mask": {"i": "0"}, "end_mask": {"i": "3"}, "Index": {"type": "DT_INT32"}, "T": {"type": "DT_FLOAT"}, "shrink_axis_mask": {"i": "0"}}}, {"name": "strided_slice_72", "op": "StridedSlice", "input": ["add_14:z:0", "__inference_while_1_body_849_1581_frozen/strided_slice_179/stack:output:0", "__inference_while_1_body_849_1581_frozen/strided_slice_200/stack_1:output:0", "__inference_while_1_body_849_1581_frozen/strided_slice_179/stack_2:output:0"], "attr": {"end_mask": {"i": "1"}, "Index": {"type": "DT_INT32"}, "T": {"type": "DT_FLOAT"}, "shrink_axis_mask": {"i": "0"}, "ellipsis_mask": {"i": "0"}, "begin_mask": {"i": "3"}, "new_axis_mask": {"i": "0"}}}, {"name": "mul_35", "op": "Mul", "input": ["add_14:z:0", "truediv_55:z:0"], "attr": {"T": {"type": "DT_FLOAT"}}}, {"name": "truediv_18", "op": "RealDiv", "input": ["mul_33:z:0", "strided_slice_175:output:0"], "attr": {"T": {"type": "DT_FLOAT"}}}, {"name": "mul_39", "op": "Mul", "input": ["strided_slice_185:output:0", "strided_slice_70:output:0"], "attr": {"T": {"type": "DT_FLOAT"}}}, {"name": "mul_40", "op": "Mul", "input": ["strided_slice_187:output:0", "strided_slice_72:output:0"], "attr": {"T": {"type": "DT_FLOAT"}}}, {"name": "sub_29", "op": "Sub", "input": ["strided_slice_70:output:0", "strided_slice_72:output:0"], "attr": {"T": {"type": "DT_FLOAT"}}}, {"name": "strided_slice_63", "op": "StridedSlice", "input": ["mul_35:z:0", "__inference_while_1_body_849_1581_frozen/strided_slice_179/stack:output:0", "__inference_while_1_body_849_1581_frozen/strided_slice_179/stack_1:output:0", "__inference_while_1_body_849_1581_frozen/strided_slice_179/stack_2:output:0"], "attr": {"Index": {"type": "DT_INT32"}, "T": {"type": "DT_FLOAT"}, "shrink_axis_mask": {"i": "2"}, "begin_mask": {"i": "1"}, "ellipsis_mask": {"i": "0"}, "new_axis_mask": {"i": "0"}, "end_mask": {"i": "1"}}}, {"name": "strided_slice_61", "op": "StridedSlice", "input": ["mul_35:z:0", "__inference_while_1_body_849_1581_frozen/strided_slice_179/stack_1:output:0", "__inference_while_1_body_849_1581_frozen/strided_slice_179/stack:output:0", "__inference_while_1_body_849_1581_frozen/strided_slice_179/stack_2:output:0"], "attr": {"Index": {"type": "DT_INT32"}, "T": {"type": "DT_FLOAT"}, "shrink_axis_mask": {"i": "0"}, "begin_mask": {"i": "1"}, "ellipsis_mask": {"i": "0"}, "new_axis_mask": {"i": "0"}, "end_mask": {"i": "3"}}}, {"name": "strided_slice_62", "op": "StridedSlice", "input": ["mul_35:z:0", "__inference_while_1_body_849_1581_frozen/strided_slice_179/stack:output:0", "__inference_while_1_body_849_1581_frozen/strided_slice_200/stack_1:output:0", "__inference_while_1_body_849_1581_frozen/strided_slice_179/stack_2:output:0"], "attr": {"shrink_axis_mask": {"i": "0"}, "begin_mask": {"i": "3"}, "ellipsis_mask": {"i": "0"}, "new_axis_mask": {"i": "0"}, "end_mask": {"i": "1"}, "T": {"type": "DT_FLOAT"}, "Index": {"type": "DT_INT32"}}}, {"name": "strided_slice_64", "op": "StridedSlice", "input": ["mul_35:z:0", "__inference_while_1_body_849_1581_frozen/strided_slice_200/stack_1:output:0", "__inference_while_1_body_849_1581_frozen/strided_slice_179/stack:output:0", "__inference_while_1_body_849_1581_frozen/strided_slice_179/stack_2:output:0"], "attr": {"shrink_axis_mask": {"i": "2"}, "ellipsis_mask": {"i": "0"}, "begin_mask": {"i": "1"}, "new_axis_mask": {"i": "0"}, "end_mask": {"i": "1"}, "Index": {"type": "DT_INT32"}, "T": {"type": "DT_FLOAT"}}}, {"name": "strided_slice_73", "op": "StridedSlice", "input": ["truediv_18:z:0", "__inference_while_1_body_849_1581_frozen/strided_slice_179/stack_1:output:0", "__inference_while_1_body_849_1581_frozen/strided_slice_179/stack:output:0", "__inference_while_1_body_849_1581_frozen/strided_slice_179/stack_2:output:0"], "attr": {"shrink_axis_mask": {"i": "0"}, "ellipsis_mask": {"i": "0"}, "begin_mask": {"i": "1"}, "new_axis_mask": {"i": "0"}, "end_mask": {"i": "3"}, "T": {"type": "DT_FLOAT"}, "Index": {"type": "DT_INT32"}}}, {"name": "strided_slice_74", "op": "StridedSlice", "input": ["truediv_18:z:0", "__inference_while_1_body_849_1581_frozen/strided_slice_179/stack:output:0", "__inference_while_1_body_849_1581_frozen/strided_slice_200/stack_1:output:0", "__inference_while_1_body_849_1581_frozen/strided_slice_179/stack_2:output:0"], "attr": {"Index": {"type": "DT_INT32"}, "T": {"type": "DT_FLOAT"}, "shrink_axis_mask": {"i": "0"}, "begin_mask": {"i": "3"}, "ellipsis_mask": {"i": "0"}, "new_axis_mask": {"i": "0"}, "end_mask": {"i": "1"}}}, {"name": "sub_24", "op": "Sub", "input": ["mul_39:z:0", "mul_40:z:0"], "attr": {"T": {"type": "DT_FLOAT"}}}, {"name": "Pad_2", "op": "Pad", "input": ["sub_29:z:0", "__inference_while_1_body_849_1581_frozen/Pad_6/paddings:output:0"], "attr": {"Tpaddings": {"type": "DT_INT32"}, "T": {"type": "DT_FLOAT"}}}, {"name": "add_15", "op": "AddV2", "input": ["strided_slice_61:output:0", "strided_slice_62:output:0"], "attr": {"T": {"type": "DT_FLOAT"}}}, {"name": "add_17", "op": "AddV2", "input": ["strided_slice_73:output:0", "strided_slice_74:output:0"], "attr": {"T": {"type": "DT_FLOAT"}}}, {"name": "truediv_22", "op": "RealDiv", "input": ["sub_24:z:0", "truediv_4_dx_0"], "attr": {"T": {"type": "DT_FLOAT"}}}, {"name": "strided_slice_80", "op": "StridedSlice", "input": ["Pad_2:output:0", "__inference_while_1_body_849_1581_frozen/strided_slice_179/stack:output:0", "__inference_while_1_body_849_1581_frozen/strided_slice_196/stack_1:output:0", "__inference_while_1_body_849_1581_frozen/strided_slice_179/stack_2:output:0"], "attr": {"Index": {"type": "DT_INT32"}, "T": {"type": "DT_FLOAT"}, "shrink_axis_mask": {"i": "0"}, "ellipsis_mask": {"i": "0"}, "begin_mask": {"i": "3"}, "new_axis_mask": {"i": "0"}, "end_mask": {"i": "1"}}}, {"name": "strided_slice_79", "op": "StridedSlice", "input": ["Pad_2:output:0", "__inference_while_1_body_849_1581_frozen/strided_slice_195/stack:output:0", "__inference_while_1_body_849_1581_frozen/strided_slice_179/stack:output:0", "__inference_while_1_body_849_1581_frozen/strided_slice_179/stack_2:output:0"], "attr": {"T": {"type": "DT_FLOAT"}, "Index": {"type": "DT_INT32"}, "shrink_axis_mask": {"i": "0"}, "ellipsis_mask": {"i": "0"}, "begin_mask": {"i": "1"}, "new_axis_mask": {"i": "0"}, "end_mask": {"i": "3"}}}, {"name": "mul_36", "op": "Mul", "input": ["add_15:z:0", "__inference_while_1_body_849_1581_frozen/mul_114/x:output:0"], "attr": {"T": {"type": "DT_FLOAT"}}}, {"name": "mul_41", "op": "Mul", "input": ["add_17:z:0", "__inference_while_1_body_849_1581_frozen/mul_114/x:output:0"], "attr": {"T": {"type": "DT_FLOAT"}}}, {"name": "Abs_10", "op": "Abs", "input": ["strided_slice_80:output:0"], "attr": {"T": {"type": "DT_FLOAT"}}}, {"name": "add_19", "op": "AddV2", "input": ["strided_slice_79:output:0", "strided_slice_80:output:0"], "attr": {"T": {"type": "DT_FLOAT"}}}, {"name": "sub_27", "op": "Sub", "input": ["strided_slice_79:output:0", "strided_slice_80:output:0"], "attr": {"T": {"type": "DT_FLOAT"}}}, {"name": "Abs_9", "op": "Abs", "input": ["strided_slice_79:output:0"], "attr": {"T": {"type": "DT_FLOAT"}}}, {"name": "mul_42", "op": "Mul", "input": ["mul_41:z:0", "sub_73:z:0"], "attr": {"T": {"type": "DT_FLOAT"}}}, {"name": "add_18", "op": "AddV2", "input": ["Abs_10:y:0", "Abs_9:y:0"], "attr": {"T": {"type": "DT_FLOAT"}}}, {"name": "truediv_23", "op": "RealDiv", "input": ["mul_42:z:0", "truediv_4_dx_0"], "attr": {"T": {"type": "DT_FLOAT"}}}, {"name": "div_no_nan_2", "op": "DivNoNan", "input": ["sub_27:z:0", "add_18:z:0"], "attr": {"T": {"type": "DT_FLOAT"}}}, {"name": "sub_31", "op": "Sub", "input": ["truediv_23:z:0", "truediv_22:z:0"], "attr": {"T": {"type": "DT_FLOAT"}}}, {"name": "Abs_11", "op": "Abs", "input": ["div_no_nan_2:z:0"], "attr": {"T": {"type": "DT_FLOAT"}}}, {"name": "add_20", "op": "AddV2", "input": ["mul_36:z:0", "sub_31:z:0"], "attr": {"T": {"type": "DT_FLOAT"}}}, {"name": "pow_2", "op": "Square", "input": ["Abs_11:y:0"], "attr": {"T": {"type": "DT_FLOAT"}}}, {"name": "sub_28", "op": "Sub", "input": ["__inference_while_1_body_849_1581_frozen/sub_76/x:output:0", "pow_2:y:0"], "attr": {"T": {"type": "DT_FLOAT"}}}, {"name": "mul_43", "op": "Mul", "input": ["__inference_while_1_body_849_1581_frozen/mul_114/x:output:0", "sub_28:z:0"], "attr": {"T": {"type": "DT_FLOAT"}}}, {"name": "mul_44", "op": "Mul", "input": ["add_19:z:0", "mul_43:z:0"], "attr": {"T": {"type": "DT_FLOAT"}}}, {"name": "sub_30", "op": "Sub", "input": ["sub_29:z:0", "mul_44:z:0"], "attr": {"T": {"type": "DT_FLOAT"}}}, {"name": "mul_46", "op": "Mul", "input": ["mul_123:z:0", "sub_30:z:0"], "attr": {"T": {"type": "DT_FLOAT"}}}, {"name": "sub_32", "op": "Sub", "input": ["add_20:z:0", "mul_46:z:0"], "attr": {"T": {"type": "DT_FLOAT"}}}, {"name": "strided_slice_85", "op": "StridedSlice", "input": ["sub_32:z:0", "__inference_while_1_body_849_1581_frozen/strided_slice_179/stack:output:0", "__inference_while_1_body_849_1581_frozen/strided_slice_179/stack_1:output:0", "__inference_while_1_body_849_1581_frozen/strided_slice_179/stack_2:output:0"], "attr": {"T": {"type": "DT_FLOAT"}, "Index": {"type": "DT_INT32"}, "shrink_axis_mask": {"i": "2"}, "begin_mask": {"i": "1"}, "ellipsis_mask": {"i": "0"}, "new_axis_mask": {"i": "0"}, "end_mask": {"i": "1"}}}, {"name": "strided_slice_83", "op": "StridedSlice", "input": ["sub_32:z:0", "__inference_while_1_body_849_1581_frozen/strided_slice_179/stack_1:output:0", "__inference_while_1_body_849_1581_frozen/strided_slice_179/stack:output:0", "__inference_while_1_body_849_1581_frozen/strided_slice_179/stack_2:output:0"], "attr": {"Index": {"type": "DT_INT32"}, "T": {"type": "DT_FLOAT"}, "shrink_axis_mask": {"i": "0"}, "ellipsis_mask": {"i": "0"}, "begin_mask": {"i": "1"}, "new_axis_mask": {"i": "0"}, "end_mask": {"i": "3"}}}, {"name": "strided_slice_84", "op": "StridedSlice", "input": ["sub_32:z:0", "__inference_while_1_body_849_1581_frozen/strided_slice_179/stack:output:0", "__inference_while_1_body_849_1581_frozen/strided_slice_200/stack_1:output:0", "__inference_while_1_body_849_1581_frozen/strided_slice_179/stack_2:output:0"], "attr": {"shrink_axis_mask": {"i": "0"}, "begin_mask": {"i": "3"}, "ellipsis_mask": {"i": "0"}, "new_axis_mask": {"i": "0"}, "end_mask": {"i": "1"}, "Index": {"type": "DT_INT32"}, "T": {"type": "DT_FLOAT"}}}, {"name": "strided_slice_86", "op": "StridedSlice", "input": ["sub_32:z:0", "__inference_while_1_body_849_1581_frozen/strided_slice_200/stack_1:output:0", "__inference_while_1_body_849_1581_frozen/strided_slice_179/stack:output:0", "__inference_while_1_body_849_1581_frozen/strided_slice_179/stack_2:output:0"], "attr": {"shrink_axis_mask": {"i": "2"}, "ellipsis_mask": {"i": "0"}, "begin_mask": {"i": "1"}, "new_axis_mask": {"i": "0"}, "end_mask": {"i": "1"}, "Index": {"type": "DT_INT32"}, "T": {"type": "DT_FLOAT"}}}, {"name": "sub_34", "op": "Sub", "input": ["strided_slice_63:output:0", "strided_slice_85:output:0"], "attr": {"T": {"type": "DT_FLOAT"}}}, {"name": "sub_33", "op": "Sub", "input": ["strided_slice_83:output:0", "strided_slice_84:output:0"], "attr": {"T": {"type": "DT_FLOAT"}}}, {"name": "sub_35", "op": "Sub", "input": ["strided_slice_86:output:0", "strided_slice_64:output:0"], "attr": {"T": {"type": "DT_FLOAT"}}}, {"name": "truediv_25", "op": "RealDiv", "input": ["sub_34:z:0", "truediv_4_dx_0"], "attr": {"T": {"type": "DT_FLOAT"}}}, {"name": "Neg_2", "op": "Neg", "input": ["sub_33:z:0"], "attr": {"T": {"type": "DT_FLOAT"}}}, {"name": "truediv_26", "op": "RealDiv", "input": ["sub_35:z:0", "truediv_4_dx_0"], "attr": {"T": {"type": "DT_FLOAT"}}}, {"name": "ExpandDims_4", "op": "ExpandDims", "input": ["truediv_25:z:0", "__inference_while_1_body_849_1581_frozen/ExpandDims_12/dim:output:0"], "attr": {"Tdim": {"type": "DT_INT32"}, "T": {"type": "DT_FLOAT"}}}, {"name": "truediv_24", "op": "RealDiv", "input": ["Neg_2:y:0", "truediv_4_dx_0"], "attr": {"T": {"type": "DT_FLOAT"}}}, {"name": "ExpandDims_5", "op": "ExpandDims", "input": ["truediv_26:z:0", "__inference_while_1_body_849_1581_frozen/ExpandDims_12/dim:output:0"], "attr": {"Tdim": {"type": "DT_INT32"}, "T": {"type": "DT_FLOAT"}}}, {"name": "concat_2", "op": "ConcatV2", "input": ["ExpandDims_4:output:0", "truediv_24:z:0", "ExpandDims_5:output:0", "__inference_while_1_body_849_1581_frozen/concat_6/axis:output:0"], "attr": {"T": {"type": "DT_FLOAT"}, "N": {"i": "3"}, "Tidx": {"type": "DT_INT32"}}}, {"name": "mul_47", "op": "Mul", "input": ["concat_2:output:0", "placeholder"], "attr": {"T": {"type": "DT_FLOAT"}}}, {"name": "mul_128", "op": "Mul", "input": ["__inference_while_1_body_849_1581_frozen/mul_128/x:output:0", "mul_47:z:0"], "attr": {"T": {"type": "DT_FLOAT"}}}, {"name": "mul_107", "op": "Mul", "input": ["__inference_while_1_body_849_1581_frozen/mul_107/x:output:0", "mul_47:z:0"], "attr": {"T": {"type": "DT_FLOAT"}}}, {"name": "mul_87", "op": "Mul", "input": ["mul_47:z:0", "__inference_while_1_body_849_1581_frozen/mul_87/x:output:0"], "attr": {"T": {"type": "DT_FLOAT"}}}, {"name": "mul_68", "op": "Mul", "input": ["mul_47:z:0", "__inference_while_1_body_849_1581_frozen/mul_68/x:output:0"], "attr": {"T": {"type": "DT_FLOAT"}}}, {"name": "mul_50", "op": "Mul", "input": ["mul_47:z:0", "__inference_while_1_body_849_1581_frozen/mul_50/x:output:0"], "attr": {"T": {"type": "DT_FLOAT"}}}, {"name": "add_64", "op": "AddV2", "input": ["add_63:z:0", "mul_128:z:0"], "attr": {"T": {"type": "DT_FLOAT"}}}, {"name": "add_52", "op": "AddV2", "input": ["add_51:z:0", "mul_107:z:0"], "attr": {"T": {"type": "DT_FLOAT"}}}, {"name": "add_41", "op": "AddV2", "input": ["add_40:z:0", "mul_87:z:0"], "attr": {"T": {"type": "DT_FLOAT"}}}, {"name": "add_31", "op": "AddV2", "input": ["add_30:z:0", "mul_68:z:0"], "attr": {"T": {"type": "DT_FLOAT"}}}, {"name": "add_22", "op": "AddV2", "input": ["add_21:z:0", "mul_50:z:0"], "attr": {"T": {"type": "DT_FLOAT"}}}, {"name": "add_23", "op": "AddV2", "input": ["add_22:z:0", "shape_c_mat_sn_0"], "attr": {"T": {"type": "DT_FLOAT"}}}, {"name": "mul_51", "op": "Mul", "input": ["add_23:z:0", "mul_sum_4_0"], "attr": {"T": {"type": "DT_FLOAT"}}}, {"name": "strided_slice_99", "op": "StridedSlice", "input": ["add_23:z:0", "__inference_while_1_body_849_1581_frozen/strided_slice_179/stack_1:output:0", "__inference_while_1_body_849_1581_frozen/strided_slice_179/stack:output:0", "__inference_while_1_body_849_1581_frozen/strided_slice_179/stack_2:output:0"], "attr": {"end_mask": {"i": "3"}, "T": {"type": "DT_FLOAT"}, "Index": {"type": "DT_INT32"}, "shrink_axis_mask": {"i": "0"}, "ellipsis_mask": {"i": "0"}, "begin_mask": {"i": "1"}, "new_axis_mask": {"i": "0"}}}, {"name": "strided_slice_101", "op": "StridedSlice", "input": ["add_23:z:0", "__inference_while_1_body_849_1581_frozen/strided_slice_179/stack:output:0", "__inference_while_1_body_849_1581_frozen/strided_slice_200/stack_1:output:0", "__inference_while_1_body_849_1581_frozen/strided_slice_179/stack_2:output:0"], "attr": {"shrink_axis_mask": {"i": "0"}, "ellipsis_mask": {"i": "0"}, "begin_mask": {"i": "3"}, "new_axis_mask": {"i": "0"}, "end_mask": {"i": "1"}, "Index": {"type": "DT_INT32"}, "T": {"type": "DT_FLOAT"}}}, {"name": "mul_53", "op": "Mul", "input": ["add_23:z:0", "truediv_55:z:0"], "attr": {"T": {"type": "DT_FLOAT"}}}, {"name": "truediv_27", "op": "RealDiv", "input": ["mul_51:z:0", "strided_slice_175:output:0"], "attr": {"T": {"type": "DT_FLOAT"}}}, {"name": "mul_57", "op": "Mul", "input": ["strided_slice_185:output:0", "strided_slice_99:output:0"], "attr": {"T": {"type": "DT_FLOAT"}}}, {"name": "mul_58", "op": "Mul", "input": ["strided_slice_101:output:0", "strided_slice_187:output:0"], "attr": {"T": {"type": "DT_FLOAT"}}}, {"name": "sub_41", "op": "Sub", "input": ["strided_slice_99:output:0", "strided_slice_101:output:0"], "attr": {"T": {"type": "DT_FLOAT"}}}, {"name": "strided_slice_92", "op": "StridedSlice", "input": ["mul_53:z:0", "__inference_while_1_body_849_1581_frozen/strided_slice_179/stack:output:0", "__inference_while_1_body_849_1581_frozen/strided_slice_179/stack_1:output:0", "__inference_while_1_body_849_1581_frozen/strided_slice_179/stack_2:output:0"], "attr": {"shrink_axis_mask": {"i": "2"}, "begin_mask": {"i": "1"}, "ellipsis_mask": {"i": "0"}, "new_axis_mask": {"i": "0"}, "end_mask": {"i": "1"}, "Index": {"type": "DT_INT32"}, "T": {"type": "DT_FLOAT"}}}, {"name": "strided_slice_90", "op": "StridedSlice", "input": ["mul_53:z:0", "__inference_while_1_body_849_1581_frozen/strided_slice_179/stack_1:output:0", "__inference_while_1_body_849_1581_frozen/strided_slice_179/stack:output:0", "__inference_while_1_body_849_1581_frozen/strided_slice_179/stack_2:output:0"], "attr": {"shrink_axis_mask": {"i": "0"}, "begin_mask": {"i": "1"}, "ellipsis_mask": {"i": "0"}, "new_axis_mask": {"i": "0"}, "end_mask": {"i": "3"}, "Index": {"type": "DT_INT32"}, "T": {"type": "DT_FLOAT"}}}, {"name": "strided_slice_91", "op": "StridedSlice", "input": ["mul_53:z:0", "__inference_while_1_body_849_1581_frozen/strided_slice_179/stack:output:0", "__inference_while_1_body_849_1581_frozen/strided_slice_200/stack_1:output:0", "__inference_while_1_body_849_1581_frozen/strided_slice_179/stack_2:output:0"], "attr": {"shrink_axis_mask": {"i": "0"}, "begin_mask": {"i": "3"}, "ellipsis_mask": {"i": "0"}, "new_axis_mask": {"i": "0"}, "end_mask": {"i": "1"}, "Index": {"type": "DT_INT32"}, "T": {"type": "DT_FLOAT"}}}, {"name": "strided_slice_93", "op": "StridedSlice", "input": ["mul_53:z:0", "__inference_while_1_body_849_1581_frozen/strided_slice_200/stack_1:output:0", "__inference_while_1_body_849_1581_frozen/strided_slice_179/stack:output:0", "__inference_while_1_body_849_1581_frozen/strided_slice_179/stack_2:output:0"], "attr": {"Index": {"type": "DT_INT32"}, "T": {"type": "DT_FLOAT"}, "shrink_axis_mask": {"i": "2"}, "begin_mask": {"i": "1"}, "ellipsis_mask": {"i": "0"}, "new_axis_mask": {"i": "0"}, "end_mask": {"i": "1"}}}, {"name": "strided_slice_102", "op": "StridedSlice", "input": ["truediv_27:z:0", "__inference_while_1_body_849_1581_frozen/strided_slice_179/stack_1:output:0", "__inference_while_1_body_849_1581_frozen/strided_slice_179/stack:output:0", "__inference_while_1_body_849_1581_frozen/strided_slice_179/stack_2:output:0"], "attr": {"T": {"type": "DT_FLOAT"}, "Index": {"type": "DT_INT32"}, "shrink_axis_mask": {"i": "0"}, "ellipsis_mask": {"i": "0"}, "begin_mask": {"i": "1"}, "new_axis_mask": {"i": "0"}, "end_mask": {"i": "3"}}}, {"name": "strided_slice_103", "op": "StridedSlice", "input": ["truediv_27:z:0", "__inference_while_1_body_849_1581_frozen/strided_slice_179/stack:output:0", "__inference_while_1_body_849_1581_frozen/strided_slice_200/stack_1:output:0", "__inference_while_1_body_849_1581_frozen/strided_slice_179/stack_2:output:0"], "attr": {"T": {"type": "DT_FLOAT"}, "Index": {"type": "DT_INT32"}, "shrink_axis_mask": {"i": "0"}, "ellipsis_mask": {"i": "0"}, "begin_mask": {"i": "3"}, "new_axis_mask": {"i": "0"}, "end_mask": {"i": "1"}}}, {"name": "sub_36", "op": "Sub", "input": ["mul_57:z:0", "mul_58:z:0"], "attr": {"T": {"type": "DT_FLOAT"}}}, {"name": "Pad_3", "op": "Pad", "input": ["sub_41:z:0", "__inference_while_1_body_849_1581_frozen/Pad_6/paddings:output:0"], "attr": {"T": {"type": "DT_FLOAT"}, "Tpaddings": {"type": "DT_INT32"}}}, {"name": "add_24", "op": "AddV2", "input": ["strided_slice_90:output:0", "strided_slice_91:output:0"], "attr": {"T": {"type": "DT_FLOAT"}}}, {"name": "add_26", "op": "AddV2", "input": ["strided_slice_102:output:0", "strided_slice_103:output:0"], "attr": {"T": {"type": "DT_FLOAT"}}}, {"name": "truediv_31", "op": "RealDiv", "input": ["sub_36:z:0", "truediv_4_dx_0"], "attr": {"T": {"type": "DT_FLOAT"}}}, {"name": "strided_slice_108", "op": "StridedSlice", "input": ["Pad_3:output:0", "__inference_while_1_body_849_1581_frozen/strided_slice_195/stack:output:0", "__inference_while_1_body_849_1581_frozen/strided_slice_179/stack:output:0", "__inference_while_1_body_849_1581_frozen/strided_slice_179/stack_2:output:0"], "attr": {"shrink_axis_mask": {"i": "0"}, "begin_mask": {"i": "1"}, "ellipsis_mask": {"i": "0"}, "new_axis_mask": {"i": "0"}, "end_mask": {"i": "3"}, "Index": {"type": "DT_INT32"}, "T": {"type": "DT_FLOAT"}}}, {"name": "strided_slice_109", "op": "StridedSlice", "input": ["Pad_3:output:0", "__inference_while_1_body_849_1581_frozen/strided_slice_179/stack:output:0", "__inference_while_1_body_849_1581_frozen/strided_slice_196/stack_1:output:0", "__inference_while_1_body_849_1581_frozen/strided_slice_179/stack_2:output:0"], "attr": {"T": {"type": "DT_FLOAT"}, "Index": {"type": "DT_INT32"}, "shrink_axis_mask": {"i": "0"}, "ellipsis_mask": {"i": "0"}, "begin_mask": {"i": "3"}, "new_axis_mask": {"i": "0"}, "end_mask": {"i": "1"}}}, {"name": "mul_54", "op": "Mul", "input": ["add_24:z:0", "__inference_while_1_body_849_1581_frozen/mul_114/x:output:0"], "attr": {"T": {"type": "DT_FLOAT"}}}, {"name": "mul_59", "op": "Mul", "input": ["add_26:z:0", "__inference_while_1_body_849_1581_frozen/mul_114/x:output:0"], "attr": {"T": {"type": "DT_FLOAT"}}}, {"name": "Abs_13", "op": "Abs", "input": ["strided_slice_108:output:0"], "attr": {"T": {"type": "DT_FLOAT"}}}, {"name": "add_28", "op": "AddV2", "input": ["strided_slice_108:output:0", "strided_slice_109:output:0"], "attr": {"T": {"type": "DT_FLOAT"}}}, {"name": "sub_39", "op": "Sub", "input": ["strided_slice_108:output:0", "strided_slice_109:output:0"], "attr": {"T": {"type": "DT_FLOAT"}}}, {"name": "Abs_14", "op": "Abs", "input": ["strided_slice_109:output:0"], "attr": {"T": {"type": "DT_FLOAT"}}}, {"name": "mul_60", "op": "Mul", "input": ["mul_59:z:0", "sub_73:z:0"], "attr": {"T": {"type": "DT_FLOAT"}}}, {"name": "add_27", "op": "AddV2", "input": ["Abs_13:y:0", "Abs_14:y:0"], "attr": {"T": {"type": "DT_FLOAT"}}}, {"name": "truediv_32", "op": "RealDiv", "input": ["mul_60:z:0", "truediv_4_dx_0"], "attr": {"T": {"type": "DT_FLOAT"}}}, {"name": "div_no_nan_3", "op": "DivNoNan", "input": ["sub_39:z:0", "add_27:z:0"], "attr": {"T": {"type": "DT_FLOAT"}}}, {"name": "sub_43", "op": "Sub", "input": ["truediv_32:z:0", "truediv_31:z:0"], "attr": {"T": {"type": "DT_FLOAT"}}}, {"name": "Abs_15", "op": "Abs", "input": ["div_no_nan_3:z:0"], "attr": {"T": {"type": "DT_FLOAT"}}}, {"name": "add_29", "op": "AddV2", "input": ["mul_54:z:0", "sub_43:z:0"], "attr": {"T": {"type": "DT_FLOAT"}}}, {"name": "pow_3", "op": "Square", "input": ["Abs_15:y:0"], "attr": {"T": {"type": "DT_FLOAT"}}}, {"name": "sub_40", "op": "Sub", "input": ["__inference_while_1_body_849_1581_frozen/sub_76/x:output:0", "pow_3:y:0"], "attr": {"T": {"type": "DT_FLOAT"}}}, {"name": "mul_61", "op": "Mul", "input": ["__inference_while_1_body_849_1581_frozen/mul_114/x:output:0", "sub_40:z:0"], "attr": {"T": {"type": "DT_FLOAT"}}}, {"name": "mul_62", "op": "Mul", "input": ["add_28:z:0", "mul_61:z:0"], "attr": {"T": {"type": "DT_FLOAT"}}}, {"name": "sub_42", "op": "Sub", "input": ["sub_41:z:0", "mul_62:z:0"], "attr": {"T": {"type": "DT_FLOAT"}}}, {"name": "mul_64", "op": "Mul", "input": ["mul_123:z:0", "sub_42:z:0"], "attr": {"T": {"type": "DT_FLOAT"}}}, {"name": "sub_44", "op": "Sub", "input": ["add_29:z:0", "mul_64:z:0"], "attr": {"T": {"type": "DT_FLOAT"}}}, {"name": "strided_slice_114", "op": "StridedSlice", "input": ["sub_44:z:0", "__inference_while_1_body_849_1581_frozen/strided_slice_179/stack:output:0", "__inference_while_1_body_849_1581_frozen/strided_slice_179/stack_1:output:0", "__inference_while_1_body_849_1581_frozen/strided_slice_179/stack_2:output:0"], "attr": {"shrink_axis_mask": {"i": "2"}, "ellipsis_mask": {"i": "0"}, "begin_mask": {"i": "1"}, "new_axis_mask": {"i": "0"}, "end_mask": {"i": "1"}, "Index": {"type": "DT_INT32"}, "T": {"type": "DT_FLOAT"}}}, {"name": "strided_slice_112", "op": "StridedSlice", "input": ["sub_44:z:0", "__inference_while_1_body_849_1581_frozen/strided_slice_179/stack_1:output:0", "__inference_while_1_body_849_1581_frozen/strided_slice_179/stack:output:0", "__inference_while_1_body_849_1581_frozen/strided_slice_179/stack_2:output:0"], "attr": {"end_mask": {"i": "3"}, "Index": {"type": "DT_INT32"}, "T": {"type": "DT_FLOAT"}, "shrink_axis_mask": {"i": "0"}, "ellipsis_mask": {"i": "0"}, "begin_mask": {"i": "1"}, "new_axis_mask": {"i": "0"}}}, {"name": "strided_slice_113", "op": "StridedSlice", "input": ["sub_44:z:0", "__inference_while_1_body_849_1581_frozen/strided_slice_179/stack:output:0", "__inference_while_1_body_849_1581_frozen/strided_slice_200/stack_1:output:0", "__inference_while_1_body_849_1581_frozen/strided_slice_179/stack_2:output:0"], "attr": {"Index": {"type": "DT_INT32"}, "T": {"type": "DT_FLOAT"}, "shrink_axis_mask": {"i": "0"}, "ellipsis_mask": {"i": "0"}, "begin_mask": {"i": "3"}, "new_axis_mask": {"i": "0"}, "end_mask": {"i": "1"}}}, {"name": "strided_slice_115", "op": "StridedSlice", "input": ["sub_44:z:0", "__inference_while_1_body_849_1581_frozen/strided_slice_200/stack_1:output:0", "__inference_while_1_body_849_1581_frozen/strided_slice_179/stack:output:0", "__inference_while_1_body_849_1581_frozen/strided_slice_179/stack_2:output:0"], "attr": {"shrink_axis_mask": {"i": "2"}, "ellipsis_mask": {"i": "0"}, "begin_mask": {"i": "1"}, "new_axis_mask": {"i": "0"}, "end_mask": {"i": "1"}, "Index": {"type": "DT_INT32"}, "T": {"type": "DT_FLOAT"}}}, {"name": "sub_46", "op": "Sub", "input": ["strided_slice_92:output:0", "strided_slice_114:output:0"], "attr": {"T": {"type": "DT_FLOAT"}}}, {"name": "sub_45", "op": "Sub", "input": ["strided_slice_112:output:0", "strided_slice_113:output:0"], "attr": {"T": {"type": "DT_FLOAT"}}}, {"name": "sub_47", "op": "Sub", "input": ["strided_slice_115:output:0", "strided_slice_93:output:0"], "attr": {"T": {"type": "DT_FLOAT"}}}, {"name": "truediv_34", "op": "RealDiv", "input": ["sub_46:z:0", "truediv_4_dx_0"], "attr": {"T": {"type": "DT_FLOAT"}}}, {"name": "Neg_3", "op": "Neg", "input": ["sub_45:z:0"], "attr": {"T": {"type": "DT_FLOAT"}}}, {"name": "truediv_35", "op": "RealDiv", "input": ["sub_47:z:0", "truediv_4_dx_0"], "attr": {"T": {"type": "DT_FLOAT"}}}, {"name": "ExpandDims_6", "op": "ExpandDims", "input": ["truediv_34:z:0", "__inference_while_1_body_849_1581_frozen/ExpandDims_12/dim:output:0"], "attr": {"Tdim": {"type": "DT_INT32"}, "T": {"type": "DT_FLOAT"}}}, {"name": "truediv_33", "op": "RealDiv", "input": ["Neg_3:y:0", "truediv_4_dx_0"], "attr": {"T": {"type": "DT_FLOAT"}}}, {"name": "ExpandDims_7", "op": "ExpandDims", "input": ["truediv_35:z:0", "__inference_while_1_body_849_1581_frozen/ExpandDims_12/dim:output:0"], "attr": {"Tdim": {"type": "DT_INT32"}, "T": {"type": "DT_FLOAT"}}}, {"name": "concat_3", "op": "ConcatV2", "input": ["ExpandDims_6:output:0", "truediv_33:z:0", "ExpandDims_7:output:0", "__inference_while_1_body_849_1581_frozen/concat_6/axis:output:0"], "attr": {"Tidx": {"type": "DT_INT32"}, "T": {"type": "DT_FLOAT"}, "N": {"i": "3"}}}, {"name": "mul_65", "op": "Mul", "input": ["concat_3:output:0", "placeholder"], "attr": {"T": {"type": "DT_FLOAT"}}}, {"name": "mul_129", "op": "Mul", "input": ["__inference_while_1_body_849_1581_frozen/mul_129/x:output:0", "mul_65:z:0"], "attr": {"T": {"type": "DT_FLOAT"}}}, {"name": "mul_108", "op": "Mul", "input": ["__inference_while_1_body_849_1581_frozen/mul_108/x:output:0", "mul_65:z:0"], "attr": {"T": {"type": "DT_FLOAT"}}}, {"name": "mul_88", "op": "Mul", "input": ["mul_65:z:0", "__inference_while_1_body_849_1581_frozen/mul_88/x:output:0"], "attr": {"T": {"type": "DT_FLOAT"}}}, {"name": "mul_69", "op": "Mul", "input": ["mul_65:z:0", "__inference_while_1_body_849_1581_frozen/mul_69/x:output:0"], "attr": {"T": {"type": "DT_FLOAT"}}}, {"name": "add_65", "op": "AddV2", "input": ["add_64:z:0", "mul_129:z:0"], "attr": {"T": {"type": "DT_FLOAT"}}}, {"name": "add_53", "op": "AddV2", "input": ["add_52:z:0", "mul_108:z:0"], "attr": {"T": {"type": "DT_FLOAT"}}}, {"name": "add_42", "op": "AddV2", "input": ["add_41:z:0", "mul_88:z:0"], "attr": {"T": {"type": "DT_FLOAT"}}}, {"name": "add_32", "op": "AddV2", "input": ["add_31:z:0", "mul_69:z:0"], "attr": {"T": {"type": "DT_FLOAT"}}}, {"name": "add_33", "op": "AddV2", "input": ["add_32:z:0", "shape_c_mat_sn_0"], "attr": {"T": {"type": "DT_FLOAT"}}}, {"name": "mul_70", "op": "Mul", "input": ["add_33:z:0", "mul_sum_4_0"], "attr": {"T": {"type": "DT_FLOAT"}}}, {"name": "strided_slice_128", "op": "StridedSlice", "input": ["add_33:z:0", "__inference_while_1_body_849_1581_frozen/strided_slice_179/stack_1:output:0", "__inference_while_1_body_849_1581_frozen/strided_slice_179/stack:output:0", "__inference_while_1_body_849_1581_frozen/strided_slice_179/stack_2:output:0"], "attr": {"Index": {"type": "DT_INT32"}, "T": {"type": "DT_FLOAT"}, "shrink_axis_mask": {"i": "0"}, "ellipsis_mask": {"i": "0"}, "begin_mask": {"i": "1"}, "new_axis_mask": {"i": "0"}, "end_mask": {"i": "3"}}}, {"name": "strided_slice_130", "op": "StridedSlice", "input": ["add_33:z:0", "__inference_while_1_body_849_1581_frozen/strided_slice_179/stack:output:0", "__inference_while_1_body_849_1581_frozen/strided_slice_200/stack_1:output:0", "__inference_while_1_body_849_1581_frozen/strided_slice_179/stack_2:output:0"], "attr": {"shrink_axis_mask": {"i": "0"}, "ellipsis_mask": {"i": "0"}, "begin_mask": {"i": "3"}, "new_axis_mask": {"i": "0"}, "end_mask": {"i": "1"}, "T": {"type": "DT_FLOAT"}, "Index": {"type": "DT_INT32"}}}, {"name": "mul_72", "op": "Mul", "input": ["add_33:z:0", "truediv_55:z:0"], "attr": {"T": {"type": "DT_FLOAT"}}}, {"name": "truediv_36", "op": "RealDiv", "input": ["mul_70:z:0", "strided_slice_175:output:0"], "attr": {"T": {"type": "DT_FLOAT"}}}, {"name": "mul_76", "op": "Mul", "input": ["strided_slice_128:output:0", "strided_slice_185:output:0"], "attr": {"T": {"type": "DT_FLOAT"}}}, {"name": "mul_77", "op": "Mul", "input": ["strided_slice_130:output:0", "strided_slice_187:output:0"], "attr": {"T": {"type": "DT_FLOAT"}}}, {"name": "sub_53", "op": "Sub", "input": ["strided_slice_128:output:0", "strided_slice_130:output:0"], "attr": {"T": {"type": "DT_FLOAT"}}}, {"name": "strided_slice_121", "op": "StridedSlice", "input": ["mul_72:z:0", "__inference_while_1_body_849_1581_frozen/strided_slice_179/stack:output:0", "__inference_while_1_body_849_1581_frozen/strided_slice_179/stack_1:output:0", "__inference_while_1_body_849_1581_frozen/strided_slice_179/stack_2:output:0"], "attr": {"ellipsis_mask": {"i": "0"}, "begin_mask": {"i": "1"}, "new_axis_mask": {"i": "0"}, "end_mask": {"i": "1"}, "T": {"type": "DT_FLOAT"}, "Index": {"type": "DT_INT32"}, "shrink_axis_mask": {"i": "2"}}}, {"name": "strided_slice_119", "op": "StridedSlice", "input": ["mul_72:z:0", "__inference_while_1_body_849_1581_frozen/strided_slice_179/stack_1:output:0", "__inference_while_1_body_849_1581_frozen/strided_slice_179/stack:output:0", "__inference_while_1_body_849_1581_frozen/strided_slice_179/stack_2:output:0"], "attr": {"shrink_axis_mask": {"i": "0"}, "ellipsis_mask": {"i": "0"}, "begin_mask": {"i": "1"}, "new_axis_mask": {"i": "0"}, "end_mask": {"i": "3"}, "T": {"type": "DT_FLOAT"}, "Index": {"type": "DT_INT32"}}}, {"name": "strided_slice_120", "op": "StridedSlice", "input": ["mul_72:z:0", "__inference_while_1_body_849_1581_frozen/strided_slice_179/stack:output:0", "__inference_while_1_body_849_1581_frozen/strided_slice_200/stack_1:output:0", "__inference_while_1_body_849_1581_frozen/strided_slice_179/stack_2:output:0"], "attr": {"T": {"type": "DT_FLOAT"}, "Index": {"type": "DT_INT32"}, "shrink_axis_mask": {"i": "0"}, "begin_mask": {"i": "3"}, "ellipsis_mask": {"i": "0"}, "new_axis_mask": {"i": "0"}, "end_mask": {"i": "1"}}}, {"name": "strided_slice_122", "op": "StridedSlice", "input": ["mul_72:z:0", "__inference_while_1_body_849_1581_frozen/strided_slice_200/stack_1:output:0", "__inference_while_1_body_849_1581_frozen/strided_slice_179/stack:output:0", "__inference_while_1_body_849_1581_frozen/strided_slice_179/stack_2:output:0"], "attr": {"shrink_axis_mask": {"i": "2"}, "ellipsis_mask": {"i": "0"}, "begin_mask": {"i": "1"}, "new_axis_mask": {"i": "0"}, "end_mask": {"i": "1"}, "Index": {"type": "DT_INT32"}, "T": {"type": "DT_FLOAT"}}}, {"name": "strided_slice_131", "op": "StridedSlice", "input": ["truediv_36:z:0", "__inference_while_1_body_849_1581_frozen/strided_slice_179/stack_1:output:0", "__inference_while_1_body_849_1581_frozen/strided_slice_179/stack:output:0", "__inference_while_1_body_849_1581_frozen/strided_slice_179/stack_2:output:0"], "attr": {"T": {"type": "DT_FLOAT"}, "Index": {"type": "DT_INT32"}, "shrink_axis_mask": {"i": "0"}, "ellipsis_mask": {"i": "0"}, "begin_mask": {"i": "1"}, "new_axis_mask": {"i": "0"}, "end_mask": {"i": "3"}}}, {"name": "strided_slice_132", "op": "StridedSlice", "input": ["truediv_36:z:0", "__inference_while_1_body_849_1581_frozen/strided_slice_179/stack:output:0", "__inference_while_1_body_849_1581_frozen/strided_slice_200/stack_1:output:0", "__inference_while_1_body_849_1581_frozen/strided_slice_179/stack_2:output:0"], "attr": {"T": {"type": "DT_FLOAT"}, "Index": {"type": "DT_INT32"}, "shrink_axis_mask": {"i": "0"}, "begin_mask": {"i": "3"}, "ellipsis_mask": {"i": "0"}, "new_axis_mask": {"i": "0"}, "end_mask": {"i": "1"}}}, {"name": "sub_48", "op": "Sub", "input": ["mul_76:z:0", "mul_77:z:0"], "attr": {"T": {"type": "DT_FLOAT"}}}, {"name": "Pad_4", "op": "Pad", "input": ["sub_53:z:0", "__inference_while_1_body_849_1581_frozen/Pad_6/paddings:output:0"], "attr": {"T": {"type": "DT_FLOAT"}, "Tpaddings": {"type": "DT_INT32"}}}, {"name": "add_34", "op": "AddV2", "input": ["strided_slice_119:output:0", "strided_slice_120:output:0"], "attr": {"T": {"type": "DT_FLOAT"}}}, {"name": "add_36", "op": "AddV2", "input": ["strided_slice_131:output:0", "strided_slice_132:output:0"], "attr": {"T": {"type": "DT_FLOAT"}}}, {"name": "truediv_40", "op": "RealDiv", "input": ["sub_48:z:0", "truediv_4_dx_0"], "attr": {"T": {"type": "DT_FLOAT"}}}, {"name": "strided_slice_137", "op": "StridedSlice", "input": ["Pad_4:output:0", "__inference_while_1_body_849_1581_frozen/strided_slice_195/stack:output:0", "__inference_while_1_body_849_1581_frozen/strided_slice_179/stack:output:0", "__inference_while_1_body_849_1581_frozen/strided_slice_179/stack_2:output:0"], "attr": {"shrink_axis_mask": {"i": "0"}, "ellipsis_mask": {"i": "0"}, "begin_mask": {"i": "1"}, "new_axis_mask": {"i": "0"}, "end_mask": {"i": "3"}, "Index": {"type": "DT_INT32"}, "T": {"type": "DT_FLOAT"}}}, {"name": "strided_slice_138", "op": "StridedSlice", "input": ["Pad_4:output:0", "__inference_while_1_body_849_1581_frozen/strided_slice_179/stack:output:0", "__inference_while_1_body_849_1581_frozen/strided_slice_196/stack_1:output:0", "__inference_while_1_body_849_1581_frozen/strided_slice_179/stack_2:output:0"], "attr": {"shrink_axis_mask": {"i": "0"}, "ellipsis_mask": {"i": "0"}, "begin_mask": {"i": "3"}, "new_axis_mask": {"i": "0"}, "end_mask": {"i": "1"}, "Index": {"type": "DT_INT32"}, "T": {"type": "DT_FLOAT"}}}, {"name": "mul_73", "op": "Mul", "input": ["add_34:z:0", "__inference_while_1_body_849_1581_frozen/mul_114/x:output:0"], "attr": {"T": {"type": "DT_FLOAT"}}}, {"name": "mul_78", "op": "Mul", "input": ["add_36:z:0", "__inference_while_1_body_849_1581_frozen/mul_114/x:output:0"], "attr": {"T": {"type": "DT_FLOAT"}}}, {"name": "Abs_17", "op": "Abs", "input": ["strided_slice_137:output:0"], "attr": {"T": {"type": "DT_FLOAT"}}}, {"name": "add_38", "op": "AddV2", "input": ["strided_slice_137:output:0", "strided_slice_138:output:0"], "attr": {"T": {"type": "DT_FLOAT"}}}, {"name": "sub_51", "op": "Sub", "input": ["strided_slice_137:output:0", "strided_slice_138:output:0"], "attr": {"T": {"type": "DT_FLOAT"}}}, {"name": "Abs_18", "op": "Abs", "input": ["strided_slice_138:output:0"], "attr": {"T": {"type": "DT_FLOAT"}}}, {"name": "mul_79", "op": "Mul", "input": ["mul_78:z:0", "sub_73:z:0"], "attr": {"T": {"type": "DT_FLOAT"}}}, {"name": "add_37", "op": "AddV2", "input": ["Abs_17:y:0", "Abs_18:y:0"], "attr": {"T": {"type": "DT_FLOAT"}}}, {"name": "truediv_41", "op": "RealDiv", "input": ["mul_79:z:0", "truediv_4_dx_0"], "attr": {"T": {"type": "DT_FLOAT"}}}, {"name": "div_no_nan_4", "op": "DivNoNan", "input": ["sub_51:z:0", "add_37:z:0"], "attr": {"T": {"type": "DT_FLOAT"}}}, {"name": "sub_55", "op": "Sub", "input": ["truediv_41:z:0", "truediv_40:z:0"], "attr": {"T": {"type": "DT_FLOAT"}}}, {"name": "Abs_19", "op": "Abs", "input": ["div_no_nan_4:z:0"], "attr": {"T": {"type": "DT_FLOAT"}}}, {"name": "add_39", "op": "AddV2", "input": ["mul_73:z:0", "sub_55:z:0"], "attr": {"T": {"type": "DT_FLOAT"}}}, {"name": "pow_4", "op": "Square", "input": ["Abs_19:y:0"], "attr": {"T": {"type": "DT_FLOAT"}}}, {"name": "sub_52", "op": "Sub", "input": ["__inference_while_1_body_849_1581_frozen/sub_76/x:output:0", "pow_4:y:0"], "attr": {"T": {"type": "DT_FLOAT"}}}, {"name": "mul_80", "op": "Mul", "input": ["__inference_while_1_body_849_1581_frozen/mul_114/x:output:0", "sub_52:z:0"], "attr": {"T": {"type": "DT_FLOAT"}}}, {"name": "mul_81", "op": "Mul", "input": ["add_38:z:0", "mul_80:z:0"], "attr": {"T": {"type": "DT_FLOAT"}}}, {"name": "sub_54", "op": "Sub", "input": ["sub_53:z:0", "mul_81:z:0"], "attr": {"T": {"type": "DT_FLOAT"}}}, {"name": "mul_83", "op": "Mul", "input": ["mul_123:z:0", "sub_54:z:0"], "attr": {"T": {"type": "DT_FLOAT"}}}, {"name": "sub_56", "op": "Sub", "input": ["add_39:z:0", "mul_83:z:0"], "attr": {"T": {"type": "DT_FLOAT"}}}, {"name": "strided_slice_143", "op": "StridedSlice", "input": ["sub_56:z:0", "__inference_while_1_body_849_1581_frozen/strided_slice_179/stack:output:0", "__inference_while_1_body_849_1581_frozen/strided_slice_179/stack_1:output:0", "__inference_while_1_body_849_1581_frozen/strided_slice_179/stack_2:output:0"], "attr": {"Index": {"type": "DT_INT32"}, "T": {"type": "DT_FLOAT"}, "shrink_axis_mask": {"i": "2"}, "ellipsis_mask": {"i": "0"}, "begin_mask": {"i": "1"}, "new_axis_mask": {"i": "0"}, "end_mask": {"i": "1"}}}, {"name": "strided_slice_141", "op": "StridedSlice", "input": ["sub_56:z:0", "__inference_while_1_body_849_1581_frozen/strided_slice_179/stack_1:output:0", "__inference_while_1_body_849_1581_frozen/strided_slice_179/stack:output:0", "__inference_while_1_body_849_1581_frozen/strided_slice_179/stack_2:output:0"], "attr": {"Index": {"type": "DT_INT32"}, "T": {"type": "DT_FLOAT"}, "shrink_axis_mask": {"i": "0"}, "ellipsis_mask": {"i": "0"}, "begin_mask": {"i": "1"}, "new_axis_mask": {"i": "0"}, "end_mask": {"i": "3"}}}, {"name": "strided_slice_142", "op": "StridedSlice", "input": ["sub_56:z:0", "__inference_while_1_body_849_1581_frozen/strided_slice_179/stack:output:0", "__inference_while_1_body_849_1581_frozen/strided_slice_200/stack_1:output:0", "__inference_while_1_body_849_1581_frozen/strided_slice_179/stack_2:output:0"], "attr": {"ellipsis_mask": {"i": "0"}, "begin_mask": {"i": "3"}, "new_axis_mask": {"i": "0"}, "end_mask": {"i": "1"}, "T": {"type": "DT_FLOAT"}, "Index": {"type": "DT_INT32"}, "shrink_axis_mask": {"i": "0"}}}, {"name": "strided_slice_144", "op": "StridedSlice", "input": ["sub_56:z:0", "__inference_while_1_body_849_1581_frozen/strided_slice_200/stack_1:output:0", "__inference_while_1_body_849_1581_frozen/strided_slice_179/stack:output:0", "__inference_while_1_body_849_1581_frozen/strided_slice_179/stack_2:output:0"], "attr": {"ellipsis_mask": {"i": "0"}, "begin_mask": {"i": "1"}, "new_axis_mask": {"i": "0"}, "end_mask": {"i": "1"}, "Index": {"type": "DT_INT32"}, "T": {"type": "DT_FLOAT"}, "shrink_axis_mask": {"i": "2"}}}, {"name": "sub_58", "op": "Sub", "input": ["strided_slice_121:output:0", "strided_slice_143:output:0"], "attr": {"T": {"type": "DT_FLOAT"}}}, {"name": "sub_57", "op": "Sub", "input": ["strided_slice_141:output:0", "strided_slice_142:output:0"], "attr": {"T": {"type": "DT_FLOAT"}}}, {"name": "sub_59", "op": "Sub", "input": ["strided_slice_144:output:0", "strided_slice_122:output:0"], "attr": {"T": {"type": "DT_FLOAT"}}}, {"name": "truediv_43", "op": "RealDiv", "input": ["sub_58:z:0", "truediv_4_dx_0"], "attr": {"T": {"type": "DT_FLOAT"}}}, {"name": "Neg_4", "op": "Neg", "input": ["sub_57:z:0"], "attr": {"T": {"type": "DT_FLOAT"}}}, {"name": "truediv_44", "op": "RealDiv", "input": ["sub_59:z:0", "truediv_4_dx_0"], "attr": {"T": {"type": "DT_FLOAT"}}}, {"name": "ExpandDims_8", "op": "ExpandDims", "input": ["truediv_43:z:0", "__inference_while_1_body_849_1581_frozen/ExpandDims_12/dim:output:0"], "attr": {"Tdim": {"type": "DT_INT32"}, "T": {"type": "DT_FLOAT"}}}, {"name": "truediv_42", "op": "RealDiv", "input": ["Neg_4:y:0", "truediv_4_dx_0"], "attr": {"T": {"type": "DT_FLOAT"}}}, {"name": "ExpandDims_9", "op": "ExpandDims", "input": ["truediv_44:z:0", "__inference_while_1_body_849_1581_frozen/ExpandDims_12/dim:output:0"], "attr": {"T": {"type": "DT_FLOAT"}, "Tdim": {"type": "DT_INT32"}}}, {"name": "concat_4", "op": "ConcatV2", "input": ["ExpandDims_8:output:0", "truediv_42:z:0", "ExpandDims_9:output:0", "__inference_while_1_body_849_1581_frozen/concat_6/axis:output:0"], "attr": {"N": {"i": "3"}, "Tidx": {"type": "DT_INT32"}, "T": {"type": "DT_FLOAT"}}}, {"name": "mul_84", "op": "Mul", "input": ["concat_4:output:0", "placeholder"], "attr": {"T": {"type": "DT_FLOAT"}}}, {"name": "mul_130", "op": "Mul", "input": ["__inference_while_1_body_849_1581_frozen/mul_130/x:output:0", "mul_84:z:0"], "attr": {"T": {"type": "DT_FLOAT"}}}, {"name": "mul_109", "op": "Mul", "input": ["__inference_while_1_body_849_1581_frozen/mul_109/x:output:0", "mul_84:z:0"], "attr": {"T": {"type": "DT_FLOAT"}}}, {"name": "mul_89", "op": "Mul", "input": ["mul_84:z:0", "__inference_while_1_body_849_1581_frozen/mul_89/x:output:0"], "attr": {"T": {"type": "DT_FLOAT"}}}, {"name": "add_66", "op": "AddV2", "input": ["add_65:z:0", "mul_130:z:0"], "attr": {"T": {"type": "DT_FLOAT"}}}, {"name": "add_54", "op": "AddV2", "input": ["add_53:z:0", "mul_109:z:0"], "attr": {"T": {"type": "DT_FLOAT"}}}, {"name": "add_43", "op": "AddV2", "input": ["add_42:z:0", "mul_89:z:0"], "attr": {"T": {"type": "DT_FLOAT"}}}, {"name": "add_44", "op": "AddV2", "input": ["add_43:z:0", "shape_c_mat_sn_0"], "attr": {"T": {"type": "DT_FLOAT"}}}, {"name": "mul_90", "op": "Mul", "input": ["add_44:z:0", "mul_sum_4_0"], "attr": {"T": {"type": "DT_FLOAT"}}}, {"name": "strided_slice_157", "op": "StridedSlice", "input": ["add_44:z:0", "__inference_while_1_body_849_1581_frozen/strided_slice_179/stack_1:output:0", "__inference_while_1_body_849_1581_frozen/strided_slice_179/stack:output:0", "__inference_while_1_body_849_1581_frozen/strided_slice_179/stack_2:output:0"], "attr": {"Index": {"type": "DT_INT32"}, "T": {"type": "DT_FLOAT"}, "shrink_axis_mask": {"i": "0"}, "begin_mask": {"i": "1"}, "ellipsis_mask": {"i": "0"}, "new_axis_mask": {"i": "0"}, "end_mask": {"i": "3"}}}, {"name": "strided_slice_159", "op": "StridedSlice", "input": ["add_44:z:0", "__inference_while_1_body_849_1581_frozen/strided_slice_179/stack:output:0", "__inference_while_1_body_849_1581_frozen/strided_slice_200/stack_1:output:0", "__inference_while_1_body_849_1581_frozen/strided_slice_179/stack_2:output:0"], "attr": {"T": {"type": "DT_FLOAT"}, "Index": {"type": "DT_INT32"}, "shrink_axis_mask": {"i": "0"}, "ellipsis_mask": {"i": "0"}, "begin_mask": {"i": "3"}, "new_axis_mask": {"i": "0"}, "end_mask": {"i": "1"}}}, {"name": "mul_92", "op": "Mul", "input": ["add_44:z:0", "truediv_55:z:0"], "attr": {"T": {"type": "DT_FLOAT"}}}, {"name": "truediv_45", "op": "RealDiv", "input": ["mul_90:z:0", "strided_slice_175:output:0"], "attr": {"T": {"type": "DT_FLOAT"}}}, {"name": "mul_96", "op": "Mul", "input": ["strided_slice_157:output:0", "strided_slice_185:output:0"], "attr": {"T": {"type": "DT_FLOAT"}}}, {"name": "mul_97", "op": "Mul", "input": ["strided_slice_159:output:0", "strided_slice_187:output:0"], "attr": {"T": {"type": "DT_FLOAT"}}}, {"name": "sub_65", "op": "Sub", "input": ["strided_slice_157:output:0", "strided_slice_159:output:0"], "attr": {"T": {"type": "DT_FLOAT"}}}, {"name": "strided_slice_150", "op": "StridedSlice", "input": ["mul_92:z:0", "__inference_while_1_body_849_1581_frozen/strided_slice_179/stack:output:0", "__inference_while_1_body_849_1581_frozen/strided_slice_179/stack_1:output:0", "__inference_while_1_body_849_1581_frozen/strided_slice_179/stack_2:output:0"], "attr": {"T": {"type": "DT_FLOAT"}, "Index": {"type": "DT_INT32"}, "shrink_axis_mask": {"i": "2"}, "ellipsis_mask": {"i": "0"}, "begin_mask": {"i": "1"}, "new_axis_mask": {"i": "0"}, "end_mask": {"i": "1"}}}, {"name": "strided_slice_148", "op": "StridedSlice", "input": ["mul_92:z:0", "__inference_while_1_body_849_1581_frozen/strided_slice_179/stack_1:output:0", "__inference_while_1_body_849_1581_frozen/strided_slice_179/stack:output:0", "__inference_while_1_body_849_1581_frozen/strided_slice_179/stack_2:output:0"], "attr": {"Index": {"type": "DT_INT32"}, "T": {"type": "DT_FLOAT"}, "shrink_axis_mask": {"i": "0"}, "begin_mask": {"i": "1"}, "ellipsis_mask": {"i": "0"}, "new_axis_mask": {"i": "0"}, "end_mask": {"i": "3"}}}, {"name": "strided_slice_149", "op": "StridedSlice", "input": ["mul_92:z:0", "__inference_while_1_body_849_1581_frozen/strided_slice_179/stack:output:0", "__inference_while_1_body_849_1581_frozen/strided_slice_200/stack_1:output:0", "__inference_while_1_body_849_1581_frozen/strided_slice_179/stack_2:output:0"], "attr": {"Index": {"type": "DT_INT32"}, "T": {"type": "DT_FLOAT"}, "shrink_axis_mask": {"i": "0"}, "ellipsis_mask": {"i": "0"}, "begin_mask": {"i": "3"}, "new_axis_mask": {"i": "0"}, "end_mask": {"i": "1"}}}, {"name": "strided_slice_151", "op": "StridedSlice", "input": ["mul_92:z:0", "__inference_while_1_body_849_1581_frozen/strided_slice_200/stack_1:output:0", "__inference_while_1_body_849_1581_frozen/strided_slice_179/stack:output:0", "__inference_while_1_body_849_1581_frozen/strided_slice_179/stack_2:output:0"], "attr": {"T": {"type": "DT_FLOAT"}, "Index": {"type": "DT_INT32"}, "shrink_axis_mask": {"i": "2"}, "ellipsis_mask": {"i": "0"}, "begin_mask": {"i": "1"}, "new_axis_mask": {"i": "0"}, "end_mask": {"i": "1"}}}, {"name": "strided_slice_160", "op": "StridedSlice", "input": ["truediv_45:z:0", "__inference_while_1_body_849_1581_frozen/strided_slice_179/stack_1:output:0", "__inference_while_1_body_849_1581_frozen/strided_slice_179/stack:output:0", "__inference_while_1_body_849_1581_frozen/strided_slice_179/stack_2:output:0"], "attr": {"Index": {"type": "DT_INT32"}, "T": {"type": "DT_FLOAT"}, "shrink_axis_mask": {"i": "0"}, "begin_mask": {"i": "1"}, "ellipsis_mask": {"i": "0"}, "new_axis_mask": {"i": "0"}, "end_mask": {"i": "3"}}}, {"name": "strided_slice_161", "op": "StridedSlice", "input": ["truediv_45:z:0", "__inference_while_1_body_849_1581_frozen/strided_slice_179/stack:output:0", "__inference_while_1_body_849_1581_frozen/strided_slice_200/stack_1:output:0", "__inference_while_1_body_849_1581_frozen/strided_slice_179/stack_2:output:0"], "attr": {"end_mask": {"i": "1"}, "Index": {"type": "DT_INT32"}, "T": {"type": "DT_FLOAT"}, "shrink_axis_mask": {"i": "0"}, "ellipsis_mask": {"i": "0"}, "begin_mask": {"i": "3"}, "new_axis_mask": {"i": "0"}}}, {"name": "sub_60", "op": "Sub", "input": ["mul_96:z:0", "mul_97:z:0"], "attr": {"T": {"type": "DT_FLOAT"}}}, {"name": "Pad_5", "op": "Pad", "input": ["sub_65:z:0", "__inference_while_1_body_849_1581_frozen/Pad_6/paddings:output:0"], "attr": {"T": {"type": "DT_FLOAT"}, "Tpaddings": {"type": "DT_INT32"}}}, {"name": "add_45", "op": "AddV2", "input": ["strided_slice_148:output:0", "strided_slice_149:output:0"], "attr": {"T": {"type": "DT_FLOAT"}}}, {"name": "add_47", "op": "AddV2", "input": ["strided_slice_160:output:0", "strided_slice_161:output:0"], "attr": {"T": {"type": "DT_FLOAT"}}}, {"name": "truediv_49", "op": "RealDiv", "input": ["sub_60:z:0", "truediv_4_dx_0"], "attr": {"T": {"type": "DT_FLOAT"}}}, {"name": "strided_slice_166", "op": "StridedSlice", "input": ["Pad_5:output:0", "__inference_while_1_body_849_1581_frozen/strided_slice_195/stack:output:0", "__inference_while_1_body_849_1581_frozen/strided_slice_179/stack:output:0", "__inference_while_1_body_849_1581_frozen/strided_slice_179/stack_2:output:0"], "attr": {"Index": {"type": "DT_INT32"}, "T": {"type": "DT_FLOAT"}, "shrink_axis_mask": {"i": "0"}, "ellipsis_mask": {"i": "0"}, "begin_mask": {"i": "1"}, "new_axis_mask": {"i": "0"}, "end_mask": {"i": "3"}}}, {"name": "strided_slice_167", "op": "StridedSlice", "input": ["Pad_5:output:0", "__inference_while_1_body_849_1581_frozen/strided_slice_179/stack:output:0", "__inference_while_1_body_849_1581_frozen/strided_slice_196/stack_1:output:0", "__inference_while_1_body_849_1581_frozen/strided_slice_179/stack_2:output:0"], "attr": {"Index": {"type": "DT_INT32"}, "T": {"type": "DT_FLOAT"}, "shrink_axis_mask": {"i": "0"}, "begin_mask": {"i": "3"}, "ellipsis_mask": {"i": "0"}, "new_axis_mask": {"i": "0"}, "end_mask": {"i": "1"}}}, {"name": "mul_93", "op": "Mul", "input": ["add_45:z:0", "__inference_while_1_body_849_1581_frozen/mul_114/x:output:0"], "attr": {"T": {"type": "DT_FLOAT"}}}, {"name": "mul_98", "op": "Mul", "input": ["add_47:z:0", "__inference_while_1_body_849_1581_frozen/mul_114/x:output:0"], "attr": {"T": {"type": "DT_FLOAT"}}}, {"name": "Abs_21", "op": "Abs", "input": ["strided_slice_166:output:0"], "attr": {"T": {"type": "DT_FLOAT"}}}, {"name": "add_49", "op": "AddV2", "input": ["strided_slice_166:output:0", "strided_slice_167:output:0"], "attr": {"T": {"type": "DT_FLOAT"}}}, {"name": "sub_63", "op": "Sub", "input": ["strided_slice_166:output:0", "strided_slice_167:output:0"], "attr": {"T": {"type": "DT_FLOAT"}}}, {"name": "Abs_22", "op": "Abs", "input": ["strided_slice_167:output:0"], "attr": {"T": {"type": "DT_FLOAT"}}}, {"name": "mul_99", "op": "Mul", "input": ["mul_98:z:0", "sub_73:z:0"], "attr": {"T": {"type": "DT_FLOAT"}}}, {"name": "add_48", "op": "AddV2", "input": ["Abs_21:y:0", "Abs_22:y:0"], "attr": {"T": {"type": "DT_FLOAT"}}}, {"name": "truediv_50", "op": "RealDiv", "input": ["mul_99:z:0", "truediv_4_dx_0"], "attr": {"T": {"type": "DT_FLOAT"}}}, {"name": "div_no_nan_5", "op": "DivNoNan", "input": ["sub_63:z:0", "add_48:z:0"], "attr": {"T": {"type": "DT_FLOAT"}}}, {"name": "sub_67", "op": "Sub", "input": ["truediv_50:z:0", "truediv_49:z:0"], "attr": {"T": {"type": "DT_FLOAT"}}}, {"name": "Abs_23", "op": "Abs", "input": ["div_no_nan_5:z:0"], "attr": {"T": {"type": "DT_FLOAT"}}}, {"name": "add_50", "op": "AddV2", "input": ["mul_93:z:0", "sub_67:z:0"], "attr": {"T": {"type": "DT_FLOAT"}}}, {"name": "pow_5", "op": "Square", "input": ["Abs_23:y:0"], "attr": {"T": {"type": "DT_FLOAT"}}}, {"name": "sub_64", "op": "Sub", "input": ["__inference_while_1_body_849_1581_frozen/sub_76/x:output:0", "pow_5:y:0"], "attr": {"T": {"type": "DT_FLOAT"}}}, {"name": "mul_100", "op": "Mul", "input": ["__inference_while_1_body_849_1581_frozen/mul_114/x:output:0", "sub_64:z:0"], "attr": {"T": {"type": "DT_FLOAT"}}}, {"name": "mul_101", "op": "Mul", "input": ["add_49:z:0", "mul_100:z:0"], "attr": {"T": {"type": "DT_FLOAT"}}}, {"name": "sub_66", "op": "Sub", "input": ["sub_65:z:0", "mul_101:z:0"], "attr": {"T": {"type": "DT_FLOAT"}}}, {"name": "mul_103", "op": "Mul", "input": ["mul_123:z:0", "sub_66:z:0"], "attr": {"T": {"type": "DT_FLOAT"}}}, {"name": "sub_68", "op": "Sub", "input": ["add_50:z:0", "mul_103:z:0"], "attr": {"T": {"type": "DT_FLOAT"}}}, {"name": "strided_slice_172", "op": "StridedSlice", "input": ["sub_68:z:0", "__inference_while_1_body_849_1581_frozen/strided_slice_179/stack:output:0", "__inference_while_1_body_849_1581_frozen/strided_slice_179/stack_1:output:0", "__inference_while_1_body_849_1581_frozen/strided_slice_179/stack_2:output:0"], "attr": {"Index": {"type": "DT_INT32"}, "T": {"type": "DT_FLOAT"}, "shrink_axis_mask": {"i": "2"}, "begin_mask": {"i": "1"}, "ellipsis_mask": {"i": "0"}, "new_axis_mask": {"i": "0"}, "end_mask": {"i": "1"}}}, {"name": "strided_slice_170", "op": "StridedSlice", "input": ["sub_68:z:0", "__inference_while_1_body_849_1581_frozen/strided_slice_179/stack_1:output:0", "__inference_while_1_body_849_1581_frozen/strided_slice_179/stack:output:0", "__inference_while_1_body_849_1581_frozen/strided_slice_179/stack_2:output:0"], "attr": {"end_mask": {"i": "3"}, "T": {"type": "DT_FLOAT"}, "Index": {"type": "DT_INT32"}, "shrink_axis_mask": {"i": "0"}, "ellipsis_mask": {"i": "0"}, "begin_mask": {"i": "1"}, "new_axis_mask": {"i": "0"}}}, {"name": "strided_slice_171", "op": "StridedSlice", "input": ["sub_68:z:0", "__inference_while_1_body_849_1581_frozen/strided_slice_179/stack:output:0", "__inference_while_1_body_849_1581_frozen/strided_slice_200/stack_1:output:0", "__inference_while_1_body_849_1581_frozen/strided_slice_179/stack_2:output:0"], "attr": {"begin_mask": {"i": "3"}, "ellipsis_mask": {"i": "0"}, "new_axis_mask": {"i": "0"}, "end_mask": {"i": "1"}, "T": {"type": "DT_FLOAT"}, "Index": {"type": "DT_INT32"}, "shrink_axis_mask": {"i": "0"}}}, {"name": "strided_slice_173", "op": "StridedSlice", "input": ["sub_68:z:0", "__inference_while_1_body_849_1581_frozen/strided_slice_200/stack_1:output:0", "__inference_while_1_body_849_1581_frozen/strided_slice_179/stack:output:0", "__inference_while_1_body_849_1581_frozen/strided_slice_179/stack_2:output:0"], "attr": {"begin_mask": {"i": "1"}, "ellipsis_mask": {"i": "0"}, "new_axis_mask": {"i": "0"}, "end_mask": {"i": "1"}, "Index": {"type": "DT_INT32"}, "T": {"type": "DT_FLOAT"}, "shrink_axis_mask": {"i": "2"}}}, {"name": "sub_70", "op": "Sub", "input": ["strided_slice_150:output:0", "strided_slice_172:output:0"], "attr": {"T": {"type": "DT_FLOAT"}}}, {"name": "sub_69", "op": "Sub", "input": ["strided_slice_170:output:0", "strided_slice_171:output:0"], "attr": {"T": {"type": "DT_FLOAT"}}}, {"name": "sub_71", "op": "Sub", "input": ["strided_slice_173:output:0", "strided_slice_151:output:0"], "attr": {"T": {"type": "DT_FLOAT"}}}, {"name": "truediv_52", "op": "RealDiv", "input": ["sub_70:z:0", "truediv_4_dx_0"], "attr": {"T": {"type": "DT_FLOAT"}}}, {"name": "Neg_5", "op": "Neg", "input": ["sub_69:z:0"], "attr": {"T": {"type": "DT_FLOAT"}}}, {"name": "truediv_53", "op": "RealDiv", "input": ["sub_71:z:0", "truediv_4_dx_0"], "attr": {"T": {"type": "DT_FLOAT"}}}, {"name": "ExpandDims_10", "op": "ExpandDims", "input": ["truediv_52:z:0", "__inference_while_1_body_849_1581_frozen/ExpandDims_12/dim:output:0"], "attr": {"Tdim": {"type": "DT_INT32"}, "T": {"type": "DT_FLOAT"}}}, {"name": "truediv_51", "op": "RealDiv", "input": ["Neg_5:y:0", "truediv_4_dx_0"], "attr": {"T": {"type": "DT_FLOAT"}}}, {"name": "ExpandDims_11", "op": "ExpandDims", "input": ["truediv_53:z:0", "__inference_while_1_body_849_1581_frozen/ExpandDims_12/dim:output:0"], "attr": {"Tdim": {"type": "DT_INT32"}, "T": {"type": "DT_FLOAT"}}}, {"name": "concat_5", "op": "ConcatV2", "input": ["ExpandDims_10:output:0", "truediv_51:z:0", "ExpandDims_11:output:0", "__inference_while_1_body_849_1581_frozen/concat_6/axis:output:0"], "attr": {"Tidx": {"type": "DT_INT32"}, "T": {"type": "DT_FLOAT"}, "N": {"i": "3"}}}, {"name": "mul_104", "op": "Mul", "input": ["concat_5:output:0", "placeholder"], "attr": {"T": {"type": "DT_FLOAT"}}}, {"name": "mul_131", "op": "Mul", "input": ["mul_104:z:0", "__inference_while_1_body_849_1581_frozen/mul_131/x:output:0"], "attr": {"T": {"type": "DT_FLOAT"}}}, {"name": "mul_110", "op": "Mul", "input": ["mul_104:z:0", "__inference_while_1_body_849_1581_frozen/mul_110/x:output:0"], "attr": {"T": {"type": "DT_FLOAT"}}}, {"name": "add_67", "op": "AddV2", "input": ["add_66:z:0", "mul_131:z:0"], "attr": {"T": {"type": "DT_FLOAT"}}}, {"name": "add_55", "op": "AddV2", "input": ["add_54:z:0", "mul_110:z:0"], "attr": {"T": {"type": "DT_FLOAT"}}}, {"name": "add_56", "op": "AddV2", "input": ["add_55:z:0", "shape_c_mat_sn_0"], "attr": {"T": {"type": "DT_FLOAT"}}}, {"name": "mul_111", "op": "Mul", "input": ["add_56:z:0", "mul_sum_4_0"], "attr": {"T": {"type": "DT_FLOAT"}}}, {"name": "strided_slice_186", "op": "StridedSlice", "input": ["add_56:z:0", "__inference_while_1_body_849_1581_frozen/strided_slice_179/stack_1:output:0", "__inference_while_1_body_849_1581_frozen/strided_slice_179/stack:output:0", "__inference_while_1_body_849_1581_frozen/strided_slice_179/stack_2:output:0"], "attr": {"T": {"type": "DT_FLOAT"}, "Index": {"type": "DT_INT32"}, "shrink_axis_mask": {"i": "0"}, "begin_mask": {"i": "1"}, "ellipsis_mask": {"i": "0"}, "new_axis_mask": {"i": "0"}, "end_mask": {"i": "3"}}}, {"name": "strided_slice_188", "op": "StridedSlice", "input": ["add_56:z:0", "__inference_while_1_body_849_1581_frozen/strided_slice_179/stack:output:0", "__inference_while_1_body_849_1581_frozen/strided_slice_200/stack_1:output:0", "__inference_while_1_body_849_1581_frozen/strided_slice_179/stack_2:output:0"], "attr": {"shrink_axis_mask": {"i": "0"}, "begin_mask": {"i": "3"}, "ellipsis_mask": {"i": "0"}, "new_axis_mask": {"i": "0"}, "end_mask": {"i": "1"}, "T": {"type": "DT_FLOAT"}, "Index": {"type": "DT_INT32"}}}, {"name": "mul_113", "op": "Mul", "input": ["add_56:z:0", "truediv_55:z:0"], "attr": {"T": {"type": "DT_FLOAT"}}}, {"name": "truediv_54", "op": "RealDiv", "input": ["mul_111:z:0", "strided_slice_175:output:0"], "attr": {"T": {"type": "DT_FLOAT"}}}, {"name": "mul_117", "op": "Mul", "input": ["strided_slice_185:output:0", "strided_slice_186:output:0"], "attr": {"T": {"type": "DT_FLOAT"}}}, {"name": "mul_118", "op": "Mul", "input": ["strided_slice_187:output:0", "strided_slice_188:output:0"], "attr": {"T": {"type": "DT_FLOAT"}}}, {"name": "sub_77", "op": "Sub", "input": ["strided_slice_186:output:0", "strided_slice_188:output:0"], "attr": {"T": {"type": "DT_FLOAT"}}}, {"name": "strided_slice_179", "op": "StridedSlice", "input": ["mul_113:z:0", "__inference_while_1_body_849_1581_frozen/strided_slice_179/stack:output:0", "__inference_while_1_body_849_1581_frozen/strided_slice_179/stack_1:output:0", "__inference_while_1_body_849_1581_frozen/strided_slice_179/stack_2:output:0"], "attr": {"end_mask": {"i": "1"}, "T": {"type": "DT_FLOAT"}, "Index": {"type": "DT_INT32"}, "shrink_axis_mask": {"i": "2"}, "ellipsis_mask": {"i": "0"}, "begin_mask": {"i": "1"}, "new_axis_mask": {"i": "0"}}}, {"name": "strided_slice_177", "op": "StridedSlice", "input": ["mul_113:z:0", "__inference_while_1_body_849_1581_frozen/strided_slice_179/stack_1:output:0", "__inference_while_1_body_849_1581_frozen/strided_slice_179/stack:output:0", "__inference_while_1_body_849_1581_frozen/strided_slice_179/stack_2:output:0"], "attr": {"shrink_axis_mask": {"i": "0"}, "ellipsis_mask": {"i": "0"}, "begin_mask": {"i": "1"}, "new_axis_mask": {"i": "0"}, "end_mask": {"i": "3"}, "T": {"type": "DT_FLOAT"}, "Index": {"type": "DT_INT32"}}}, {"name": "strided_slice_178", "op": "StridedSlice", "input": ["mul_113:z:0", "__inference_while_1_body_849_1581_frozen/strided_slice_179/stack:output:0", "__inference_while_1_body_849_1581_frozen/strided_slice_200/stack_1:output:0", "__inference_while_1_body_849_1581_frozen/strided_slice_179/stack_2:output:0"], "attr": {"shrink_axis_mask": {"i": "0"}, "begin_mask": {"i": "3"}, "ellipsis_mask": {"i": "0"}, "new_axis_mask": {"i": "0"}, "end_mask": {"i": "1"}, "Index": {"type": "DT_INT32"}, "T": {"type": "DT_FLOAT"}}}, {"name": "strided_slice_180", "op": "StridedSlice", "input": ["mul_113:z:0", "__inference_while_1_body_849_1581_frozen/strided_slice_200/stack_1:output:0", "__inference_while_1_body_849_1581_frozen/strided_slice_179/stack:output:0", "__inference_while_1_body_849_1581_frozen/strided_slice_179/stack_2:output:0"], "attr": {"shrink_axis_mask": {"i": "2"}, "ellipsis_mask": {"i": "0"}, "begin_mask": {"i": "1"}, "new_axis_mask": {"i": "0"}, "end_mask": {"i": "1"}, "T": {"type": "DT_FLOAT"}, "Index": {"type": "DT_INT32"}}}, {"name": "strided_slice_189", "op": "StridedSlice", "input": ["truediv_54:z:0", "__inference_while_1_body_849_1581_frozen/strided_slice_179/stack_1:output:0", "__inference_while_1_body_849_1581_frozen/strided_slice_179/stack:output:0", "__inference_while_1_body_849_1581_frozen/strided_slice_179/stack_2:output:0"], "attr": {"Index": {"type": "DT_INT32"}, "T": {"type": "DT_FLOAT"}, "shrink_axis_mask": {"i": "0"}, "ellipsis_mask": {"i": "0"}, "begin_mask": {"i": "1"}, "new_axis_mask": {"i": "0"}, "end_mask": {"i": "3"}}}, {"name": "strided_slice_190", "op": "StridedSlice", "input": ["truediv_54:z:0", "__inference_while_1_body_849_1581_frozen/strided_slice_179/stack:output:0", "__inference_while_1_body_849_1581_frozen/strided_slice_200/stack_1:output:0", "__inference_while_1_body_849_1581_frozen/strided_slice_179/stack_2:output:0"], "attr": {"shrink_axis_mask": {"i": "0"}, "begin_mask": {"i": "3"}, "ellipsis_mask": {"i": "0"}, "new_axis_mask": {"i": "0"}, "end_mask": {"i": "1"}, "Index": {"type": "DT_INT32"}, "T": {"type": "DT_FLOAT"}}}, {"name": "sub_72", "op": "Sub", "input": ["mul_117:z:0", "mul_118:z:0"], "attr": {"T": {"type": "DT_FLOAT"}}}, {"name": "Pad_6", "op": "Pad", "input": ["sub_77:z:0", "__inference_while_1_body_849_1581_frozen/Pad_6/paddings:output:0"], "attr": {"Tpaddings": {"type": "DT_INT32"}, "T": {"type": "DT_FLOAT"}}}, {"name": "add_57", "op": "AddV2", "input": ["strided_slice_177:output:0", "strided_slice_178:output:0"], "attr": {"T": {"type": "DT_FLOAT"}}}, {"name": "add_59", "op": "AddV2", "input": ["strided_slice_189:output:0", "strided_slice_190:output:0"], "attr": {"T": {"type": "DT_FLOAT"}}}, {"name": "truediv_58", "op": "RealDiv", "input": ["sub_72:z:0", "truediv_4_dx_0"], "attr": {"T": {"type": "DT_FLOAT"}}}, {"name": "strided_slice_195", "op": "StridedSlice", "input": ["Pad_6:output:0", "__inference_while_1_body_849_1581_frozen/strided_slice_195/stack:output:0", "__inference_while_1_body_849_1581_frozen/strided_slice_179/stack:output:0", "__inference_while_1_body_849_1581_frozen/strided_slice_179/stack_2:output:0"], "attr": {"shrink_axis_mask": {"i": "0"}, "ellipsis_mask": {"i": "0"}, "begin_mask": {"i": "1"}, "new_axis_mask": {"i": "0"}, "end_mask": {"i": "3"}, "T": {"type": "DT_FLOAT"}, "Index": {"type": "DT_INT32"}}}, {"name": "strided_slice_196", "op": "StridedSlice", "input": ["Pad_6:output:0", "__inference_while_1_body_849_1581_frozen/strided_slice_179/stack:output:0", "__inference_while_1_body_849_1581_frozen/strided_slice_196/stack_1:output:0", "__inference_while_1_body_849_1581_frozen/strided_slice_179/stack_2:output:0"], "attr": {"Index": {"type": "DT_INT32"}, "T": {"type": "DT_FLOAT"}, "shrink_axis_mask": {"i": "0"}, "begin_mask": {"i": "3"}, "ellipsis_mask": {"i": "0"}, "new_axis_mask": {"i": "0"}, "end_mask": {"i": "1"}}}, {"name": "mul_114", "op": "Mul", "input": ["add_57:z:0", "__inference_while_1_body_849_1581_frozen/mul_114/x:output:0"], "attr": {"T": {"type": "DT_FLOAT"}}}, {"name": "mul_119", "op": "Mul", "input": ["add_59:z:0", "__inference_while_1_body_849_1581_frozen/mul_114/x:output:0"], "attr": {"T": {"type": "DT_FLOAT"}}}, {"name": "Abs_25", "op": "Abs", "input": ["strided_slice_195:output:0"], "attr": {"T": {"type": "DT_FLOAT"}}}, {"name": "add_61", "op": "AddV2", "input": ["strided_slice_195:output:0", "strided_slice_196:output:0"], "attr": {"T": {"type": "DT_FLOAT"}}}, {"name": "sub_75", "op": "Sub", "input": ["strided_slice_195:output:0", "strided_slice_196:output:0"], "attr": {"T": {"type": "DT_FLOAT"}}}, {"name": "Abs_26", "op": "Abs", "input": ["strided_slice_196:output:0"], "attr": {"T": {"type": "DT_FLOAT"}}}, {"name": "mul_120", "op": "Mul", "input": ["mul_119:z:0", "sub_73:z:0"], "attr": {"T": {"type": "DT_FLOAT"}}}, {"name": "add_60", "op": "AddV2", "input": ["Abs_25:y:0", "Abs_26:y:0"], "attr": {"T": {"type": "DT_FLOAT"}}}, {"name": "truediv_59", "op": "RealDiv", "input": ["mul_120:z:0", "truediv_4_dx_0"], "attr": {"T": {"type": "DT_FLOAT"}}}, {"name": "div_no_nan_6", "op": "DivNoNan", "input": ["sub_75:z:0", "add_60:z:0"], "attr": {"T": {"type": "DT_FLOAT"}}}, {"name": "sub_79", "op": "Sub", "input": ["truediv_59:z:0", "truediv_58:z:0"], "attr": {"T": {"type": "DT_FLOAT"}}}, {"name": "Abs_27", "op": "Abs", "input": ["div_no_nan_6:z:0"], "attr": {"T": {"type": "DT_FLOAT"}}}, {"name": "add_62", "op": "AddV2", "input": ["mul_114:z:0", "sub_79:z:0"], "attr": {"T": {"type": "DT_FLOAT"}}}, {"name": "pow_6", "op": "Square", "input": ["Abs_27:y:0"], "attr": {"T": {"type": "DT_FLOAT"}}}, {"name": "sub_76", "op": "Sub", "input": ["__inference_while_1_body_849_1581_frozen/sub_76/x:output:0", "pow_6:y:0"], "attr": {"T": {"type": "DT_FLOAT"}}}, {"name": "mul_121", "op": "Mul", "input": ["__inference_while_1_body_849_1581_frozen/mul_114/x:output:0", "sub_76:z:0"], "attr": {"T": {"type": "DT_FLOAT"}}}, {"name": "mul_122", "op": "Mul", "input": ["add_61:z:0", "mul_121:z:0"], "attr": {"T": {"type": "DT_FLOAT"}}}, {"name": "sub_78", "op": "Sub", "input": ["sub_77:z:0", "mul_122:z:0"], "attr": {"T": {"type": "DT_FLOAT"}}}, {"name": "mul_124", "op": "Mul", "input": ["mul_123:z:0", "sub_78:z:0"], "attr": {"T": {"type": "DT_FLOAT"}}}, {"name": "sub_80", "op": "Sub", "input": ["add_62:z:0", "mul_124:z:0"], "attr": {"T": {"type": "DT_FLOAT"}}}, {"name": "strided_slice_201", "op": "StridedSlice", "input": ["sub_80:z:0", "__inference_while_1_body_849_1581_frozen/strided_slice_179/stack:output:0", "__inference_while_1_body_849_1581_frozen/strided_slice_179/stack_1:output:0", "__inference_while_1_body_849_1581_frozen/strided_slice_179/stack_2:output:0"], "attr": {"T": {"type": "DT_FLOAT"}, "Index": {"type": "DT_INT32"}, "shrink_axis_mask": {"i": "2"}, "begin_mask": {"i": "1"}, "ellipsis_mask": {"i": "0"}, "new_axis_mask": {"i": "0"}, "end_mask": {"i": "1"}}}, {"name": "strided_slice_199", "op": "StridedSlice", "input": ["sub_80:z:0", "__inference_while_1_body_849_1581_frozen/strided_slice_179/stack_1:output:0", "__inference_while_1_body_849_1581_frozen/strided_slice_179/stack:output:0", "__inference_while_1_body_849_1581_frozen/strided_slice_179/stack_2:output:0"], "attr": {"end_mask": {"i": "3"}, "Index": {"type": "DT_INT32"}, "T": {"type": "DT_FLOAT"}, "shrink_axis_mask": {"i": "0"}, "ellipsis_mask": {"i": "0"}, "begin_mask": {"i": "1"}, "new_axis_mask": {"i": "0"}}}, {"name": "strided_slice_200", "op": "StridedSlice", "input": ["sub_80:z:0", "__inference_while_1_body_849_1581_frozen/strided_slice_179/stack:output:0", "__inference_while_1_body_849_1581_frozen/strided_slice_200/stack_1:output:0", "__inference_while_1_body_849_1581_frozen/strided_slice_179/stack_2:output:0"], "attr": {"shrink_axis_mask": {"i": "0"}, "ellipsis_mask": {"i": "0"}, "begin_mask": {"i": "3"}, "new_axis_mask": {"i": "0"}, "end_mask": {"i": "1"}, "Index": {"type": "DT_INT32"}, "T": {"type": "DT_FLOAT"}}}, {"name": "strided_slice_202", "op": "StridedSlice", "input": ["sub_80:z:0", "__inference_while_1_body_849_1581_frozen/strided_slice_200/stack_1:output:0", "__inference_while_1_body_849_1581_frozen/strided_slice_179/stack:output:0", "__inference_while_1_body_849_1581_frozen/strided_slice_179/stack_2:output:0"], "attr": {"T": {"type": "DT_FLOAT"}, "Index": {"type": "DT_INT32"}, "shrink_axis_mask": {"i": "2"}, "ellipsis_mask": {"i": "0"}, "begin_mask": {"i": "1"}, "new_axis_mask": {"i": "0"}, "end_mask": {"i": "1"}}}, {"name": "sub_82", "op": "Sub", "input": ["strided_slice_179:output:0", "strided_slice_201:output:0"], "attr": {"T": {"type": "DT_FLOAT"}}}, {"name": "sub_81", "op": "Sub", "input": ["strided_slice_199:output:0", "strided_slice_200:output:0"], "attr": {"T": {"type": "DT_FLOAT"}}}, {"name": "sub_83", "op": "Sub", "input": ["strided_slice_202:output:0", "strided_slice_180:output:0"], "attr": {"T": {"type": "DT_FLOAT"}}}, {"name": "truediv_61", "op": "RealDiv", "input": ["sub_82:z:0", "truediv_4_dx_0"], "attr": {"T": {"type": "DT_FLOAT"}}}, {"name": "Neg_6", "op": "Neg", "input": ["sub_81:z:0"], "attr": {"T": {"type": "DT_FLOAT"}}}, {"name": "truediv_62", "op": "RealDiv", "input": ["sub_83:z:0", "truediv_4_dx_0"], "attr": {"T": {"type": "DT_FLOAT"}}}, {"name": "ExpandDims_12", "op": "ExpandDims", "input": ["truediv_61:z:0", "__inference_while_1_body_849_1581_frozen/ExpandDims_12/dim:output:0"], "attr": {"Tdim": {"type": "DT_INT32"}, "T": {"type": "DT_FLOAT"}}}, {"name": "truediv_60", "op": "RealDiv", "input": ["Neg_6:y:0", "truediv_4_dx_0"], "attr": {"T": {"type": "DT_FLOAT"}}}, {"name": "ExpandDims_13", "op": "ExpandDims", "input": ["truediv_62:z:0", "__inference_while_1_body_849_1581_frozen/ExpandDims_12/dim:output:0"], "attr": {"T": {"type": "DT_FLOAT"}, "Tdim": {"type": "DT_INT32"}}}, {"name": "concat_6", "op": "ConcatV2", "input": ["ExpandDims_12:output:0", "truediv_60:z:0", "ExpandDims_13:output:0", "__inference_while_1_body_849_1581_frozen/concat_6/axis:output:0"], "attr": {"Tidx": {"type": "DT_INT32"}, "T": {"type": "DT_FLOAT"}, "N": {"i": "3"}}}, {"name": "mul_125", "op": "Mul", "input": ["concat_6:output:0", "__inference_while_1_body_849_1581_frozen/mul_132/x:output:0"], "attr": {"T": {"type": "DT_FLOAT"}}}, {"name": "mul_132", "op": "Mul", "input": ["mul_125:z:0", "placeholder"], "attr": {"T": {"type": "DT_FLOAT"}}}, {"name": "add_68", "op": "AddV2", "input": ["add_67:z:0", "mul_132:z:0"], "attr": {"T": {"type": "DT_FLOAT"}}}, {"name": "add_69", "op": "AddV2", "input": ["add_68:z:0", "shape_c_mat_sn_0"], "attr": {"T": {"type": "DT_FLOAT"}}}, {"name": "sub_84", "op": "SquaredDifference", "input": ["add_56:z:0", "add_69:z:0"], "attr": {"T": {"type": "DT_FLOAT"}}}, {"name": "norm/Sum", "op": "Sum", "input": ["sub_84:z:0", "__inference_while_1_body_849_1581_frozen/strided_slice_179/stack_1:output:0"], "attr": {"keep_dims": {"b": true}, "Tidx": {"type": "DT_INT32"}, "T": {"type": "DT_FLOAT"}}}, {"name": "norm/Sqrt", "op": "Sqrt", "input": ["norm/Sum:output:0"], "attr": {"T": {"type": "DT_FLOAT"}}}, {"name": "norm/Squeeze", "op": "Squeeze", "input": ["norm/Sqrt:y:0"], "attr": {"squeeze_dims": {"list": {}}, "T": {"type": "DT_FLOAT"}}}, {"name": "truediv_63", "op": "RealDiv", "input": ["tolerance_0", "norm/Squeeze:output:0"], "attr": {"T": {"type": "DT_FLOAT"}}}, {"name": "pow_7", "op": "Pow", "input": ["truediv_63:z:0", "__inference_while_1_body_849_1581_frozen/pow_7/y:output:0"], "attr": {"T": {"type": "DT_FLOAT"}}}, {"name": "mul_133", "op": "Mul", "input": ["__inference_while_1_body_849_1581_frozen/mul_133/x:output:0", "pow_7:z:0"], "attr": {"T": {"type": "DT_FLOAT"}}}, {"name": "clip_by_value/Minimum", "op": "Minimum", "input": ["mul_133:z:0", "__inference_while_1_body_849_1581_frozen/clip_by_value/Minimum/y:output:0"], "attr": {"T": {"type": "DT_FLOAT"}}}, {"name": "clip_by_value", "op": "Maximum", "input": ["clip_by_value/Minimum:z:0", "__inference_while_1_body_849_1581_frozen/clip_by_value/y:output:0"], "attr": {"T": {"type": "DT_FLOAT"}}}, {"name": "mul_134", "op": "Mul", "input": ["clip_by_value:z:0", "placeholder"], "attr": {"T": {"type": "DT_FLOAT"}}}], "ret": {"strided_slice_17_add_5": "strided_slice_17_add_5_0", "strided_slice_1_add_4": "strided_slice_1_add_4_0", "mul_sum_4": "mul_sum_4_0", "tolerance": "tolerance_0", "truediv_4_dx": "truediv_4_dx_0", "identity_1": "while_1_maximum_iterations", "identity_2": "mul_134:z:0", "strided_slice_11_sum_5": "strided_slice_11_sum_5_0", "identity_3": "norm/Squeeze:output:0", "mul_1_current": "mul_1_current_0", "identity_4": "add_56:z:0", "identity": "add_70:z:0", "shape_c_mat_sn": "shape_c_mat_sn_0"}}, {"signature": {"name": "__inference_while_1_cond_848_1775_frozen", "inputArg": [{"name": "while_1_loop_counter", "type": "DT_INT32"}, {"name": "while_1_maximum_iterations", "type": "DT_INT32"}, {"name": "placeholder", "type": "DT_FLOAT"}, {"name": "placeholder_1", "type": "DT_FLOAT"}, {"name": "placeholder_2", "type": "DT_FLOAT"}, {"name": "greater_tolerance", "type": "DT_FLOAT"}, {"name": "while_1_cond_848___redundant_placeholder0", "type": "DT_FLOAT"}, {"name": "while_1_cond_848___redundant_placeholder1", "type": "DT_FLOAT"}, {"name": "while_1_cond_848___redundant_placeholder2", "type": "DT_FLOAT"}, {"name": "while_1_cond_848___redundant_placeholder3", "type": "DT_FLOAT"}, {"name": "while_1_cond_848___redundant_placeholder4", "type": "DT_FLOAT"}, {"name": "while_1_cond_848___redundant_placeholder5", "type": "DT_FLOAT"}, {"name": "while_1_cond_848___redundant_placeholder6", "type": "DT_FLOAT"}], "outputArg": [{"name": "identity", "type": "DT_BOOL"}]}, "nodeDef": [{"name": "Greater", "op": "Greater", "input": ["placeholder_1", "greater_tolerance"], "attr": {"T": {"type": "DT_FLOAT"}}}], "ret": {"identity": "Greater:z:0"}}, {"signature": {"name": "__inference_while_body_181_1726_frozen", "inputArg": [{"name": "while_loop_counter", "type": "DT_INT32"}, {"name": "while_maximum_iterations", "type": "DT_INT32"}, {"name": "placeholder", "type": "DT_FLOAT"}, {"name": "placeholder_1", "type": "DT_FLOAT"}, {"name": "placeholder_2", "type": "DT_FLOAT"}, {"name": "placeholder_3", "type": "DT_FLOAT"}, {"name": "placeholder_4", "type": "DT_FLOAT"}, {"name": "shape_c_mat_sn_0", "type": "DT_FLOAT"}, {"name": "shape_2_l_mat_sd_0", "type": "DT_FLOAT"}, {"name": "strided_slice_9_val_mat_sd_0", "type": "DT_FLOAT"}], "outputArg": [{"name": "identity", "type": "DT_INT32"}, {"name": "identity_1", "type": "DT_INT32"}, {"name": "identity_2", "type": "DT_FLOAT"}, {"name": "identity_3", "type": "DT_FLOAT"}, {"name": "identity_4", "type": "DT_FLOAT"}, {"name": "identity_5", "type": "DT_FLOAT"}, {"name": "identity_6", "type": "DT_FLOAT"}, {"name": "shape_c_mat_sn", "type": "DT_FLOAT"}, {"name": "shape_2_l_mat_sd", "type": "DT_FLOAT"}, {"name": "strided_slice_9_val_mat_sd", "type": "DT_FLOAT"}]}, "nodeDef": [{"name": "__inference_while_body_181_1726_frozen/mul_6/x", "op": "Const", "attr": {"value": {"tensor": {"dtype": "DT_FLOAT", "tensorShape": {}}}, "dtype": {"type": "DT_FLOAT"}}}, {"name": "__inference_while_body_181_1726_frozen/Sum_2/reduction_indices", "op": "Const", "attr": {"value": {"tensor": {"dtype": "DT_INT32", "tensorShape": {"dim": [{"size": "2"}]}}}, "dtype": {"type": "DT_INT32"}}}, {"name": "__inference_while_body_181_1726_frozen/truediv_4/x", "op": "Const", "attr": {"value": {"tensor": {"dtype": "DT_FLOAT", "tensorShape": {}}}, "dtype": {"type": "DT_FLOAT"}}}, {"name": "__inference_while_body_181_1726_frozen/strided_slice_12/stack", "op": "Const", "attr": {"value": {"tensor": {"dtype": "DT_INT32", "tensorShape": {"dim": [{"size": "3"}]}}}, "dtype": {"type": "DT_INT32"}}}, {"name": "__inference_while_body_181_1726_frozen/strided_slice_12/stack_2", "op": "Const", "attr": {"value": {"tensor": {"dtype": "DT_INT32", "tensorShape": {"dim": [{"size": "3"}]}}}, "dtype": {"type": "DT_INT32"}}}, {"name": "__inference_while_body_181_1726_frozen/strided_slice_14/stack", "op": "Const", "attr": {"value": {"tensor": {"dtype": "DT_INT32", "tensorShape": {"dim": [{"size": "2"}]}}}, "dtype": {"type": "DT_INT32"}}}, {"name": "__inference_while_body_181_1726_frozen/strided_slice_14/stack_2", "op": "Const", "attr": {"dtype": {"type": "DT_INT32"}, "value": {"tensor": {"dtype": "DT_INT32", "tensorShape": {"dim": [{"size": "2"}]}}}}}, {"name": "__inference_while_body_181_1726_frozen/strided_slice_2/stack_1", "op": "Const", "attr": {"value": {"tensor": {"dtype": "DT_INT32", "tensorShape": {"dim": [{"size": "1"}]}}}, "dtype": {"type": "DT_INT32"}}}, {"name": "__inference_while_body_181_1726_frozen/strided_slice_11/stack", "op": "Const", "attr": {"dtype": {"type": "DT_INT32"}, "value": {"tensor": {"dtype": "DT_INT32", "tensorShape": {"dim": [{"size": "1"}]}}}}}, {"name": "__inference_while_body_181_1726_frozen/strided_slice_11/stack_2", "op": "Const", "attr": {"value": {"tensor": {"dtype": "DT_INT32", "tensorShape": {"dim": [{"size": "1"}]}}}, "dtype": {"type": "DT_INT32"}}}, {"name": "__inference_while_body_181_1726_frozen/Sum_1/reduction_indices", "op": "Const", "attr": {"value": {"tensor": {"dtype": "DT_INT32", "tensorShape": {}}}, "dtype": {"type": "DT_INT32"}}}, {"name": "__inference_while_body_181_1726_frozen/Tile/multiples/0", "op": "Const", "attr": {"value": {"tensor": {"dtype": "DT_INT32", "tensorShape": {}}}, "dtype": {"type": "DT_INT32"}}}, {"name": "sub", "op": "Sub", "input": ["placeholder", "placeholder_1"], "attr": {"T": {"type": "DT_FLOAT"}}}, {"name": "Shape_2", "op": "Shape", "input": ["shape_2_l_mat_sd_0"], "attr": {"T": {"type": "DT_FLOAT"}, "out_type": {"type": "DT_INT32"}}}, {"name": "strided_slice_10", "op": "StridedSlice", "input": ["shape_2_l_mat_sd_0", "__inference_while_body_181_1726_frozen/strided_slice_12/stack:output:0", "__inference_while_body_181_1726_frozen/strided_slice_12/stack:output:0", "__inference_while_body_181_1726_frozen/strided_slice_12/stack_2:output:0"], "attr": {"ellipsis_mask": {"i": "0"}, "begin_mask": {"i": "5"}, "new_axis_mask": {"i": "2"}, "end_mask": {"i": "5"}, "Index": {"type": "DT_INT32"}, "T": {"type": "DT_FLOAT"}, "shrink_axis_mask": {"i": "0"}}}, {"name": "strided_slice_12", "op": "StridedSlice", "input": ["strided_slice_9_val_mat_sd_0", "__inference_while_body_181_1726_frozen/strided_slice_12/stack:output:0", "__inference_while_body_181_1726_frozen/strided_slice_12/stack:output:0", "__inference_while_body_181_1726_frozen/strided_slice_12/stack_2:output:0"], "attr": {"T": {"type": "DT_FLOAT"}, "Index": {"type": "DT_INT32"}, "shrink_axis_mask": {"i": "0"}, "ellipsis_mask": {"i": "0"}, "begin_mask": {"i": "5"}, "new_axis_mask": {"i": "2"}, "end_mask": {"i": "5"}}}, {"name": "add_3", "op": "AddV2", "input": ["__inference_while_body_181_1726_frozen/Tile/multiples/0:output:0", "while_loop_counter"], "attr": {"T": {"type": "DT_INT32"}}}, {"name": "pow_1", "op": "Square", "input": ["sub:z:0"], "attr": {"T": {"type": "DT_FLOAT"}}}, {"name": "Log", "op": "Log", "input": ["sub:z:0"], "attr": {"T": {"type": "DT_FLOAT"}}}, {"name": "truediv_2", "op": "RealDiv", "input": ["__inference_while_body_181_1726_frozen/truediv_4/x:output:0", "sub:z:0"], "attr": {"T": {"type": "DT_FLOAT"}}}, {"name": "strided_slice_2", "op": "StridedSlice", "input": ["Shape_2:output:0", "__inference_while_body_181_1726_frozen/strided_slice_11/stack_2:output:0", "__inference_while_body_181_1726_frozen/strided_slice_2/stack_1:output:0", "__inference_while_body_181_1726_frozen/strided_slice_11/stack_2:output:0"], "attr": {"T": {"type": "DT_INT32"}, "Index": {"type": "DT_INT32"}, "shrink_axis_mask": {"i": "1"}, "begin_mask": {"i": "0"}, "ellipsis_mask": {"i": "0"}, "new_axis_mask": {"i": "0"}, "end_mask": {"i": "0"}}}, {"name": "pow", "op": "Square", "input": ["strided_slice_12:output:0"], "attr": {"T": {"type": "DT_FLOAT"}}}, {"name": "mul_3", "op": "Mul", "input": ["strided_slice_10:output:0", "strided_slice_12:output:0"], "attr": {"T": {"type": "DT_FLOAT"}}}, {"name": "truediv_4", "op": "RealDiv", "input": ["__inference_while_body_181_1726_frozen/truediv_4/x:output:0", "pow_1:y:0"], "attr": {"T": {"type": "DT_FLOAT"}}}, {"name": "strided_slice_3", "op": "StridedSlice", "input": ["Log:y:0", "__inference_while_body_181_1726_frozen/strided_slice_14/stack:output:0", "__inference_while_body_181_1726_frozen/strided_slice_14/stack:output:0", "__inference_while_body_181_1726_frozen/strided_slice_14/stack_2:output:0"], "attr": {"end_mask": {"i": "1"}, "Index": {"type": "DT_INT32"}, "T": {"type": "DT_FLOAT"}, "shrink_axis_mask": {"i": "0"}, "ellipsis_mask": {"i": "0"}, "begin_mask": {"i": "1"}, "new_axis_mask": {"i": "2"}}}, {"name": "Tile/multiples", "op": "Pack", "input": ["__inference_while_body_181_1726_frozen/Tile/multiples/0:output:0", "strided_slice_2:output:0"], "attr": {"N": {"i": "2"}, "T": {"type": "DT_INT32"}, "axis": {"i": "0"}}}, {"name": "Tile", "op": "Tile", "input": ["strided_slice_3:output:0", "Tile/multiples:output:0"], "attr": {"Tmultiples": {"type": "DT_INT32"}, "T": {"type": "DT_FLOAT"}}}, {"name": "Cumsum", "op": "Cumsum", "input": ["Tile:output:0", "__inference_while_body_181_1726_frozen/Sum_1/reduction_indices:output:0"], "attr": {"T": {"type": "DT_FLOAT"}, "exclusive": {"b": true}, "reverse": {"b": false}, "Tidx": {"type": "DT_INT32"}}}, {"name": "Exp", "op": "Exp", "input": ["Cumsum:out:0"], "attr": {"T": {"type": "DT_FLOAT"}}}, {"name": "strided_slice_11", "op": "StridedSlice", "input": ["Exp:y:0", "__inference_while_body_181_1726_frozen/strided_slice_11/stack:output:0", "__inference_while_body_181_1726_frozen/strided_slice_11/stack:output:0", "__inference_while_body_181_1726_frozen/strided_slice_11/stack_2:out…
v_1", "op": "RealDiv", "input": ["mul_8:z:0", "strided_slice_15:output:0"], "attr": {"T": {"type": "DT_FLOAT"}}}, {"name": "sub_2", "op": "Sub", "input": ["add:z:0", "truediv_2:z:0"], "attr": {"T": {"type": "DT_FLOAT"}}}, {"name": "sub_1", "op": "Sub", "input": ["mul_5:z:0", "truediv_1:z:0"], "attr": {"T": {"type": "DT_FLOAT"}}}, {"name": "Sum_2", "op": "Sum", "input": ["sub_1:z:0", "__inference_while_body_181_1726_frozen/Sum_2/reduction_indices:output:0"], "attr": {"keep_dims": {"b": false}, "Tidx": {"type": "DT_INT32"}, "T": {"type": "DT_FLOAT"}}}, {"name": "truediv_3", "op": "RealDiv", "input": ["Sum_2:output:0", "sub:z:0"], "attr": {"T": {"type": "DT_FLOAT"}}}, {"name": "add_1", "op": "AddV2", "input": ["__inference_while_body_181_1726_frozen/mul_6/x:output:0", "truediv_3:z:0"], "attr": {"T": {"type": "DT_FLOAT"}}}, {"name": "add_2", "op": "AddV2", "input": ["add_1:z:0", "truediv_4:z:0"], "attr": {"T": {"type": "DT_FLOAT"}}}, {"name": "truediv_5", "op": "RealDiv", "input": ["sub_2:z:0", "add_2:z:0"], "attr": {"T": {"type": "DT_FLOAT"}}}], "ret": {"shape_c_mat_sn": "shape_c_mat_sn_0", "shape_2_l_mat_sd": "shape_2_l_mat_sd_0", "identity_1": "while_maximum_iterations", "identity_2": "sub:z:0", "identity_3": "truediv_5:z:0", "identity_4": "Exp:y:0", "identity": "add_3:z:0", "identity_5": "sub_2:z:0", "identity_6": "Sum:output:0", "strided_slice_9_val_mat_sd": "strided_slice_9_val_mat_sd_0"}}, {"signature": {"name": "__inference_while_cond_180_1991_frozen", "inputArg": [{"name": "while_loop_counter", "type": "DT_INT32"}, {"name": "while_maximum_iterations", "type": "DT_INT32"}, {"name": "placeholder", "type": "DT_FLOAT"}, {"name": "placeholder_1", "type": "DT_FLOAT"}, {"name": "placeholder_2", "type": "DT_FLOAT"}, {"name": "placeholder_3", "type": "DT_FLOAT"}, {"name": "placeholder_4", "type": "DT_FLOAT"}, {"name": "while_cond_180___redundant_placeholder0", "type": "DT_FLOAT"}, {"name": "while_cond_180___redundant_placeholder1", "type": "DT_FLOAT"}, {"name": "while_cond_180___redundant_placeholder2", "type": "DT_FLOAT"}], "outputArg": [{"name": "identity", "type": "DT_BOOL"}]}, "nodeDef": [{"name": "__inference_while_cond_180_1991_frozen/norm/Const", "op": "Const", "attr": {"value": {"tensor": {"dtype": "DT_INT32", "tensorShape": {"dim": [{"size": "1"}]}}}, "dtype": {"type": "DT_INT32"}}}, {"name": "__inference_while_cond_180_1991_frozen/Greater/y", "op": "Const", "attr": {"value": {"tensor": {"dtype": "DT_FLOAT", "tensorShape": {}}}, "dtype": {"type": "DT_FLOAT"}}}, {"name": "norm/ArithmeticOptimizer/ReplaceMulWithSquare_mul", "op": "Square", "input": ["placeholder_3"], "attr": {"T": {"type": "DT_FLOAT"}}}, {"name": "norm/Sum", "op": "Sum", "input": ["norm/ArithmeticOptimizer/ReplaceMulWithSquare_mul:y:0", "__inference_while_cond_180_1991_frozen/norm/Const:output:0"], "attr": {"keep_dims": {"b": true}, "Tidx": {"type": "DT_INT32"}, "T": {"type": "DT_FLOAT"}}}, {"name": "norm/Sqrt", "op": "Sqrt", "input": ["norm/Sum:output:0"], "attr": {"T": {"type": "DT_FLOAT"}}}, {"name": "norm/Squeeze", "op": "Squeeze", "input": ["norm/Sqrt:y:0"], "attr": {"squeeze_dims": {"list": {}}, "T": {"type": "DT_FLOAT"}}}, {"name": "Greater", "op": "Greater", "input": ["norm/Squeeze:output:0", "__inference_while_cond_180_1991_frozen/Greater/y:output:0"], "attr": {"T": {"type": "DT_FLOAT"}}}, {"name": "cond", "op": "StatelessIf", "input": ["Greater:z:0", "placeholder_1", "placeholder", "Greater:z:0"], "attr": {"then_branch": {"func": {"name": "__inference_cond_true_199_1969_frozen"}}, "Tcond": {"type": "DT_BOOL"}, "Tin": {"list": {"type": ["DT_FLOAT", "DT_FLOAT", "DT_BOOL"]}}, "else_branch": {"func": {"name": "__inference_cond_false_200_7_frozen"}}, "output_shapes": {"list": {"shape": [{}]}}, "_lower_using_switch_merge": {"b": false}, "_read_only_resource_inputs": {"list": {}}, "Tout": {"list": {"type": ["DT_BOOL"]}}}}], "ret": {"identity": "cond:output:0"}}, {"signature": {"name": "__inference_cond_false_399_1746_frozen", "inputArg": [{"name": "placeholder", "type": "DT_FLOAT"}, {"name": "placeholder_1", "type": "DT_FLOAT"}, {"name": "placeholder_2", "type": "DT_FLOAT"}, {"name": "placeholder_3", "type": "DT_FLOAT"}, {"name": "identity_while", "type": "DT_FLOAT"}, {"name": "identity_1_while", "type": "DT_FLOAT"}, {"name": "identity_2_while", "type": "DT_FLOAT"}], "outputArg": [{"name": "identity", "type": "DT_FLOAT"}, {"name": "identity_1", "type": "DT_FLOAT"}, {"name": "identity_2", "type": "DT_FLOAT"}]}, "ret": {"identity_1": "identity_1_while", "identity_2": "identity_2_while", "identity": "identity_while"}}, {"signature": {"name": "__inference_cond_true_210_161_frozen", "inputArg": [{"name": "min_placeholder", "type": "DT_FLOAT"}, {"name": "placeholder", "type": "DT_BOOL"}], "outputArg": [{"name": "identity", "type": "DT_BOOL"}]}, "nodeDef": [{"name": "__inference_cond_true_210_161_frozen/Const", "op": "Const", "attr": {"value": {"tensor": {"dtype": "DT_INT32", "tensorShape": {"dim": [{"size": "1"}]}}}, "dtype": {"type": "DT_INT32"}}}, {"name": "__inference_cond_true_210_161_frozen/Greater/y", "op": "Const", "attr": {"dtype": {"type": "DT_FLOAT"}, "value": {"tensor": {"dtype": "DT_FLOAT", "tensorShape": {}}}}}, {"name": "Min", "op": "Min", "input": ["min_placeholder", "__inference_cond_true_210_161_frozen/Const:output:0"], "attr": {"T": {"type": "DT_FLOAT"}, "keep_dims": {"b": false}, "Tidx": {"type": "DT_INT32"}}}, {"name": "Greater", "op": "Greater", "input": ["Min:output:0", "__inference_cond_true_210_161_frozen/Greater/y:output:0"], "attr": {"T": {"type": "DT_FLOAT"}}}], "ret": {"identity": "Greater:z:0"}}, {"signature": {"name": "__inference_cond_false_575_1780_frozen", "inputArg": [{"name": "placeholder", "type": "DT_FLOAT"}, {"name": "identity_greater", "type": "DT_BOOL"}], "outputArg": [{"name": "identity", "type": "DT_BOOL"}]}, "ret": {"identity": "identity_greater"}}, {"signature": {"name": "__inference_cond_true_398_1949_frozen", "inputArg": [{"name": "shape_c_mat_sn", "type": "DT_FLOAT"}, {"name": "shape_2_l_mat_sd", "type": "DT_FLOAT"}, {"name": "log_ch_n", "type": "DT_FLOAT"}, {"name": "strided_slice_9_val_mat_sd", "type": "DT_FLOAT"}, {"name": "placeholder", "type": "DT_FLOAT"}, {"name": "placeholder_1", "type": "DT_FLOAT"}, {"name": "placeholder_2", "type": "DT_FLOAT"}], "outputArg": [{"name": "identity", "type": "DT_FLOAT"}, {"name": "identity_1", "type": "DT_FLOAT"}, {"name": "identity_2", "type": "DT_FLOAT"}]}, "nodeDef": [{"name": "__inference_cond_true_398_1949_frozen/while/loop_counter", "op": "Const", "attr": {"value": {"tensor": {"dtype": "DT_INT32", "tensorShape": {}}}, "dtype": {"type": "DT_INT32"}}}, {"name": "__inference_cond_true_398_1949_frozen/add_1/y", "op": "Const", "attr": {"value": {"tensor": {"dtype": "DT_FLOAT", "tensorShape": {}}}, "dtype": {"type": "DT_FLOAT"}}}, {"name": "__inference_cond_true_398_1949_frozen/mul_6/x", "op": "Const", "attr": {"value": {"tensor": {"dtype": "DT_FLOAT", "tensorShape": {}}}, "dtype": {"type": "DT_FLOAT"}}}, {"name": "__inference_cond_true_398_1949_frozen/Sum_2/reduction_indices", "op": "Const", "attr": {"value": {"tensor": {"dtype": "DT_INT32", "tensorShape": {"dim": [{"size": "2"}]}}}, "dtype": {"type": "DT_INT32"}}}, {"name": "__inference_cond_true_398_1949_frozen/truediv_4/x", "op": "Const", "attr": {"value": {"tensor": {"dtype": "DT_FLOAT", "tensorShape": {}}}, "dtype": {"type": "DT_FLOAT"}}}, {"name": "__inference_cond_true_398_1949_frozen/strided_slice_12/stack", "op": "Const", "attr": {"value": {"tensor": {"dtype": "DT_INT32", "tensorShape": {"dim": [{"size": "3"}]}}}, "dtype": {"type": "DT_INT32"}}}, {"name": "__inference_cond_true_398_1949_frozen/strided_slice_12/stack_2", "op": "Const", "attr": {"value": {"tensor": {"dtype": "DT_INT32", "tensorShape": {"dim": [{"size": "3"}]}}}, "dtype": {"type": "DT_INT32"}}}, {"name": "__inference_cond_true_398_1949_frozen/strided_slice_14/stack", "op": "Const", "attr": {"dtype": {"type": "DT_INT32"}, "value": {"tensor": {"dtype": "DT_INT32", "tensorShape": {"dim": [{"size": "2"}]}}}}}, {"name": "__inference_cond_true_398_1949_frozen/strided_slice_14/stack_2", "op": "Const", "attr": {"dtype": {"type": "DT_INT32"}, "value": {"tensor": {"dtype": "DT_INT32", "tensorShape": {"dim": [{"size": "2"}]}}}}}, {"name": "__inference_cond_true_398_1949_frozen/Tile/multiples/0", "op": "Const", "attr": {"value": {"tensor": {"dtype": "DT_INT32", "tensorShape": {}}}, "dtype": {"type": "DT_INT32"}}}, {"name": "__inference_cond_true_398_1949_frozen/strided_slice_2/stack_1", "op": "Const", "attr": {"value": {"tensor": {"dtype": "DT_INT32", "tensorShape": {"dim": [{"size": "1"}]}}}, "dtype": {"type": "DT_INT32"}}}, {"name": "__inference_cond_true_398_1949_frozen/strided_slice_11/stack", "op": "Const", "attr": {"value": {"tensor": {"dtype": "DT_INT32", "tensorShape": {"dim": [{"size": "1"}]}}}, "dtype": {"type": "DT_INT32"}}}, {"name": "__inference_cond_true_398_1949_frozen/strided_slice_11/stack_2", "op": "Const", "attr": {"value": {"tensor": {"dtype": "DT_INT32", "tensorShape": {"dim": [{"size": "1"}]}}}, "dtype": {"type": "DT_INT32"}}}, {"name": "__inference_cond_true_398_1949_frozen/while/maximum_iterations", "op": "Const", "attr": {"value": {"tensor": {"dtype": "DT_INT32", "tensorShape": {}}}, "dtype": {"type": "DT_INT32"}}}, {"name": "Shape_2", "op": "Shape", "input": ["shape_2_l_mat_sd"], "attr": {"T": {"type": "DT_FLOAT"}, "out_type": {"type": "DT_INT32"}}}, {"name": "pow_1", "op": "Square", "input": ["log_ch_n"], "attr": {"T": {"type": "DT_FLOAT"}}}, {"name": "Log", "op": "Log", "input": ["log_ch_n"], "attr": {"T": {"type": "DT_FLOAT"}}}, {"name": "truediv_2", "op": "RealDiv", "input": ["__inference_cond_true_398_1949_frozen/truediv_4/x:output:0", "log_ch_n"], "attr": {"T": {"type": "DT_FLOAT"}}}, {"name": "strided_slice_10", "op": "StridedSlice", "input": ["shape_2_l_mat_sd", "__inference_cond_true_398_1949_frozen/strided_slice_12/stack:output:0", "__inference_cond_true_398_1949_frozen/strided_slice_12/stack:output:0", "__inference_cond_true_398_1949_frozen/strided_slice_12/stack_2:output:0"], "attr": {"begin_mask": {"i": "5"}, "ellipsis_mask": {"i": "0"}, "new_axis_mask": {"i": "2"}, "end_mask": {"i": "5"}, "Index": {"type": "DT_INT32"}, "T": {"type": "DT_FLOAT"}, "shrink_axis_mask": {"i": "0"}}}, {"name": "strided_slice_12", "op": "StridedSlice", "input": ["strided_slice_9_val_mat_sd", "__inference_cond_true_398_1949_frozen/strided_slice_12/stack:output:0", "__inference_cond_true_398_1949_frozen/strided_slice_12/stack:output:0", "__inference_cond_true_398_1949_frozen/strided_slice_12/stack_2:output:0"], "attr": {"shrink_axis_mask": {"i": "0"}, "begin_mask": {"i": "5"}, "ellipsis_mask": {"i": "0"}, "new_axis_mask": {"i": "2"}, "end_mask": {"i": "5"}, "Index": {"type": "DT_INT32"}, "T": {"type": "DT_FLOAT"}}}, {"name": "strided_slice_2", "op": "StridedSlice", "input": ["Shape_2:output:0", "__inference_cond_true_398_1949_frozen/strided_slice_11/stack_2:output:0", "__inference_cond_true_398_1949_frozen/strided_slice_2/stack_1:output:0", "__inference_cond_true_398_1949_frozen/strided_slice_11/stack_2:output:0"], "attr": {"T": {"type": "DT_INT32"}, "Index": {"type": "DT_INT32"}, "shrink_axis_mask": {"i": "1"}, "begin_mask": {"i": "0"}, "ellipsis_mask": {"i": "0"}, "new_axis_mask": {"i": "0"}, "end_mask": {"i": "0"}}}, {"name": "truediv_4", "op": "RealDiv", "input": ["__inference_cond_true_398_1949_frozen/truediv_4/x:output:0", "pow_1:y:0"], "attr": {"T": {"type": "DT_FLOAT"}}}, {"name": "strided_slice_3", "op": "StridedSlice", "input": ["Log:y:0", "__inference_cond_true_398_1949_frozen/strided_slice_14/stack:output:0", "__inference_cond_true_398_1949_frozen/strided_slice_14/stack:output:0", "__inference_cond_true_398_1949_frozen/strided_slice_14/stack_2:output:0"], "attr": {"shrink_axis_mask": {"i": "0"}, "ellipsis_mask": {"i": "0"}, "begin_mask": {"i": "1"}, "new_axis_mask": {"i": "2"}, "end_mask": {"i": "1"}, "Index": {"type": "DT_INT32"}, "T": {"type": "DT_FLOAT"}}}, {"name": "pow", "op": "Square", "input": ["strided_slice_12:output:0"], "attr": {"T": {"type": "DT_FLOAT"}}}, {"name": "mul_3", "op": "Mul", "input": ["strided_slice_10:output:0", "strided_slice_12:output:0"], "attr": {"T": {"type": "DT_FLOAT"}}}, {"name": "Tile/multiples", "op": "Pack", "input": ["__inference_cond_true_398_1949_frozen/Tile/multiples/0:output:0", "strided_slice_2:output:0"], "attr": {"T": {"type": "DT_INT32"}, "axis": {"i": "0"}, "N": {"i": "2"}}}, {"name": "Tile", "op": "Tile", "input": ["strided_slice_3:output:0", "Tile/multiples:output:0"], "attr": {"T": {"type": "DT_FLOAT"}, "Tmultiples": {"type": "DT_INT32"}}}, {"name": "Cumsum", "op": "Cumsum", "input": ["Tile:output:0", "__inference_cond_true_398_1949_frozen/while/maximum_iterations:output:0"], "attr": {"reverse": {"b": false}, "Tidx": {"type": "DT_INT32"}, "T": {"type": "DT_FLOAT"}, "exclusive": {"b": true}}}, {"name": "Exp", "op": "Exp", "input": ["Cumsum:out:0"], "attr": {"T": {"type": "DT_FLOAT"}}}, {"name": "strided_slice_11", "op": "StridedSlice", "input": ["Exp:y:0", "__inference_cond_true_398_1949_frozen/strided_slice_11/stack:output:0", "__inference_cond_true_398_1949_frozen/strided_slice_11/stack:output:0", "__inference_cond_true_398_1949_frozen/strided_slice_11/stack_2:output:0"], "attr": {"begin_mask": {"i": "0"}, "ellipsis_mask": {"i": "0"}, "new_axis_mask": {"i": "1"}, "end_mask": {"i": "0"}, "T": {"type": "DT_FLOAT"}, "Index": {"type": "DT_INT32"}, "shrink_axis_mask": {"i": "0"}}}, {"name": "mul_4", "op": "Mul", "input": ["mul_3:z:0", "strided_slice_11:output:0"], "attr": {"T": {"type": "DT_FLOAT"}}}, {"name": "mul_1", "op": "Mul", "input": ["strided_slice_10:output:0", "strided_slice_11:output:0"], "attr": {"T": {"type": "DT_FLOAT"}}}, {"name": "Sum_1", "op": "Sum", "input": ["mul_4:z:0", "__inference_cond_true_398_1949_frozen/while/maximum_iterations:output:0"], "attr": {"T": {"type": "DT_FLOAT"}, "keep_dims": {"b": false}, "Tidx": {"type": "DT_INT32"}}}, {"name": "Sum", "op": "Sum", "input": ["mul_1:z:0", "__inference_cond_true_398_1949_frozen/while/maximum_iterations:output:0"], "attr": {"T": {"type": "DT_FLOAT"}, "keep_dims": {"b": false}, "Tidx": {"type": "DT_INT32"}}}, {"name": "strided_slice_14", "op": "StridedSlice", "input": ["Sum_1:output:0", "__inference_cond_true_398_1949_frozen/strided_slice_14/stack:output:0", "__inference_cond_true_398_1949_frozen/strided_slice_14/stack:output:0", "__inference_cond_true_398_1949_frozen/strided_slice_14/stack_2:output:0"], "attr": {"Index": {"type": "DT_INT32"}, "T": {"type": "DT_FLOAT"}, "shrink_axis_mask": {"i": "0"}, "ellipsis_mask": {"i": "1"}, "begin_mask": {"i": "0"}, "new_axis_mask": {"i": "2"}, "end_mask": {"i": "0"}}}, {"name": "strided_slice_15", "op": "StridedSlice", "input": ["Sum:output:0", "__inference_cond_true_398_1949_frozen/strided_slice_14/stack:output:0", "__inference_cond_true_398_1949_frozen/strided_slice_14/stack:output:0", "__inference_cond_true_398_1949_frozen/strided_slice_14/stack_2:output:0"], "attr": {"Index": {"type": "DT_INT32"}, "T": {"type": "DT_FLOAT"}, "shrink_axis_mask": {"i": "0"}, "ellipsis_mask": {"i": "1"}, "begin_mask": {"i": "0"}, "new_axis_mask": {"i": "2"}, "end_mask": {"i": "0"}}}, {"name": "truediv", "op": "RealDiv", "input": ["shape_c_mat_sn", "Sum:output:0"], "attr": {"T": {"type": "DT_FLOAT"}}}, {"name": "strided_slice_8", "op": "StridedSlice", "input": ["truediv:z:0", "__inference_cond_true_398_1949_frozen/strided_slice_14/stack:output:0", "__inference_cond_true_398_1949_frozen/strided_slice_14/stack:output:0", "__inference_cond_true_398_1949_frozen/strided_slice_14/stack_2:output:0"], "attr": {"ellipsis_mask": {"i": "1"}, "begin_mask": {"i": "0"}, "new_axis_mask": {"i": "2"}, "end_mask": {"i": "0"}, "T": {"type": "DT_FLOAT"}, "Index": {"type": "DT_INT32"}, "shrink_axis_mask": {"i": "0"}}}, {"name": "mul_2", "op": "Mul", "input": ["mul_1:z:0", "strided_slice_8:output:0"], "attr": {"T": {"type": "DT_FLOAT"}}}, {"name": "mul_5", "op": "Mul", "input": ["mul_2:z:0", "pow:y:0"], "attr": {"T": {"type": "DT_FLOAT"}}}, {"name": "mul_6", "op": "Mul", "input": ["mul_2:z:0", "__inference_cond_true_398_1949_frozen/mul_6/x:output:0"], "attr": {"T": {"type": "DT_FLOAT"}}}, {"name": "mul_9", "op": "Mul", "input": ["mul_2:z:0", "strided_slice_12:output:0"], "attr": {"T": {"type": "DT_FLOAT"}}}, {"name": "mul_7", "op": "Mul", "input": ["mul_6:z:0", "strided_slice_12:output:0"], "attr": {"T": {"type": "DT_FLOAT"}}}, {"name": "Sum_3", "op": "Sum", "input": ["mul_9:z:0", "__inference_cond_true_398_1949_frozen/Sum_2/reduction_indices:output:0"], "attr": {"T": {"type": "DT_FLOAT"}, "keep_dims": {"b": false}, "Tidx": {"type": "DT_INT32"}}}, {"name": "mul_8", "op": "Mul", "input": ["mul_7:z:0", "strided_slice_14:output:0"], "attr": {"T": {"type": "DT_FLOAT"}}}, {"name": "add", "op": "AddV2", "input": ["Sum_3:output:0", "log_ch_n"], "attr": {"T": {"type": "DT_FLOAT"}}}, {"name": "truediv_1", "op": "RealDiv", "input": ["mul_8:z:0", "strided_slice_15:output:0"], "attr": {"T": {"type": "DT_FLOAT"}}}, {"name": "sub_1", "op": "Sub", "input": ["add:z:0", "truediv_2:z:0"], "attr": {"T": {"type": "DT_FLOAT"}}}, {"name": "sub", "op": "Sub", "input": ["mul_5:z:0", "truediv_1:z:0"], "attr": {"T": {"type": "DT_FLOAT"}}}, {"name": "Sum_2", "op": "Sum", "input": ["sub:z:0", "__inference_cond_true_398_1949_frozen/Sum_2/reduction_indices:output:0"], "attr": {"keep_dims": {"b": false}, "Tidx": {"type": "DT_INT32"}, "T": {"type": "DT_FLOAT"}}}, {"name": "truediv_3", "op": "RealDiv", "input": ["Sum_2:output:0", "log_ch_n"], "attr": {"T": {"type": "DT_FLOAT"}}}, {"name": "add_1", "op": "AddV2", "input": ["__inference_cond_true_398_1949_frozen/add_1/y:output:0", "truediv_3:z:0"], "attr": {"T": {"type": "DT_FLOAT"}}}, {"name": "add_2", "op": "AddV2", "input": ["add_1:z:0", "truediv_4:z:0"], "attr": {"T": {"type": "DT_FLOAT"}}}, {"name": "truediv_5", "op": "RealDiv", "input": ["sub_1:z:0", "add_2:z:0"], "attr": {"T": {"type": "DT_FLOAT"}}}, {"name": "while", "op": "StatelessWhile", "input": ["__inference_cond_true_398_1949_frozen/while/loop_counter:output:0", "__inference_cond_true_398_1949_frozen/while/maximum_iterations:output:0", "log_ch_n", "truediv_5:z:0", "Exp:y:0", "sub_1:z:0", "Sum:output:0", "shape_c_mat_sn", "shape_2_l_mat_sd", "strided_slice_9_val_mat_sd"], "attr": {"T": {"list": {"type": ["DT_INT32", "DT_INT32", "DT_FLOAT", "DT_FLOAT", "DT_FLOAT", "DT_FLOAT", "DT_FLOAT", "DT_FLOAT", "DT_FLOAT", "DT_FLOAT"]}}, "output_shapes": {"list": {"shape": [{}, {}, {"dim": [{"size": "-1"}]}, {"dim": [{"size": "-1"}]}, {"dim": [{"size": "-1"}, {"size": "-1"}]}, {"dim": [{"size": "-1"}]}, {"dim": [{"size": "-1"}, {"size": "-1"}]}, {"dim": [{"size": "-1"}, {"size": "-1"}]}, {"dim": [{"size": "-1"}, {"size": "-1"}]}, {"dim": [{"size": "-1"}, {"size": "-1"}]}]}}, "_lower_using_switch_merge": {"b": false}, "_read_only_resource_inputs": {"list": {}}, "parallel_iterations": {"i": "10"}, "cond": {"func": {"name": "__inference_while_cond_555_1802_frozen"}}, "_num_original_outputs": {"i": "10"}, "body": {"func": {"name": "__inference_while_body_556_152_frozen"}}}}], "ret": {"identity": "while:output:4", "identity_1": "while:output:2", "identity_2": "while:output:6"}}, {"signature": {"name": "__inference_cond_true_199_1969_frozen", "inputArg": [{"name": "norm_mul_placeholder_1", "type": "DT_FLOAT"}, {"name": "cond_placeholder", "type": "DT_FLOAT"}, {"name": "placeholder", "type": "DT_BOOL"}], "outputArg": [{"name": "identity", "type": "DT_BOOL"}]}, "nodeDef": [{"name": "__inference_cond_true_199_1969_frozen/norm/Const", "op": "Const", "attr": {"value": {"tensor": {"dtype": "DT_INT32", "tensorShape": {"dim": [{"size": "1"}]}}}, "dtype": {"type": "DT_INT32"}}}, {"name": "__inference_cond_true_199_1969_frozen/Greater/y", "op": "Const", "attr": {"value": {"tensor": {"dtype": "DT_FLOAT", "tensorShape": {}}}, "dtype": {"type": "DT_FLOAT"}}}, {"name": "norm/ArithmeticOptimizer/ReplaceMulWithSquare_mul", "op": "Square", "input": ["norm_mul_placeholder_1"], "attr": {"T": {"type": "DT_FLOAT"}}}, {"name": "norm/Sum", "op": "Sum", "input": ["norm/ArithmeticOptimizer/ReplaceMulWithSquare_mul:y:0", "__inference_cond_true_199_1969_frozen/norm/Const:output:0"], "attr": {"T": {"type": "DT_FLOAT"}, "keep_dims": {"b": true}, "Tidx": {"type": "DT_INT32"}}}, {"name": "norm/Sqrt", "op": "Sqrt", "input": ["norm/Sum:output:0"], "attr": {"T": {"type": "DT_FLOAT"}}}, {"name": "norm/Squeeze", "op": "Squeeze", "input": ["norm/Sqrt:y:0"], "attr": {"squeeze_dims": {"list": {}}, "T": {"type": "DT_FLOAT"}}}, {"name": "Greater", "op": "Greater", "input": ["norm/Squeeze:output:0", "__inference_cond_true_199_1969_frozen/Greater/y:output:0"], "attr": {"T": {"type": "DT_FLOAT"}}}, {"name": "cond", "op": "StatelessIf", "input": ["Greater:z:0", "cond_placeholder", "Greater:z:0"], "attr": {"Tout": {"list": {"type": ["DT_BOOL"]}}, "Tcond": {"type": "DT_BOOL"}, "then_branch": {"func": {"name": "__inference_cond_true_210_161_frozen"}}, "Tin": {"list": {"type": ["DT_FLOAT", "DT_BOOL"]}}, "else_branch": {"func": {"name": "__inference_cond_false_211_1954_frozen"}}, "output_shapes": {"list": {"shape": [{}]}}, "_lower_using_switch_merge": {"b": false}, "_read_only_resource_inputs": {"list": {}}}}], "ret": {"identity": "cond:output:0"}}, {"signature": {"name": "__inference_while_cond_555_1802_frozen", "inputArg": [{"name": "while_loop_counter", "type": "DT_INT32"}, {"name": "while_maximum_iterations", "type": "DT_INT32"}, {"name": "placeholder", "type": "DT_FLOAT"}, {"name": "placeholder_1", "type": "DT_FLOAT"}, {"name": "placeholder_2", "type": "DT_FLOAT"}, {"name": "placeholder_3", "type": "DT_FLOAT"}, {"name": "placeholder_4", "type": "DT_FLOAT"}, {"name": "while_cond_555___redundant_placeholder0", "type": "DT_FLOAT"}, {"name": "while_cond_555___redundant_placeholder1", "type": "DT_FLOAT"}, {"name": "while_cond_555___redundant_placeholder2", "type": "DT_FLOAT"}], "outputArg": [{"name": "identity", "type": "DT_BOOL"}]}, "nodeDef": [{"name": "__inference_while_cond_555_1802_frozen/norm/Const", "op": "Const", "attr": {"value": {"tensor": {"dtype": "DT_INT32", "tensorShape": {"dim": [{"size": "1"}]}}}, "dtype": {"type": "DT_INT32"}}}, {"name": "__inference_while_cond_555_1802_frozen/Greater/y", "op": "Const", "attr": {"value": {"tensor": {"dtype": "DT_FLOAT", "tensorShape": {}}}, "dtype": {"type": "DT_FLOAT"}}}, {"name": "norm/ArithmeticOptimizer/ReplaceMulWithSquare_mul", "op": "Square", "input": ["placeholder_3"], "attr": {"T": {"type": "DT_FLOAT"}}}, {"name": "norm/Sum", "op": "Sum", "input": ["norm/ArithmeticOptimizer/ReplaceMulWithSquare_mul:y:0", "__inference_while_cond_555_1802_frozen/norm/Const:output:0"], "attr": {"keep_dims": {"b": true}, "Tidx": {"type": "DT_INT32"}, "T": {"type": "DT_FLOAT"}}}, {"name": "norm/Sqrt", "op": "Sqrt", "input": ["norm/Sum:output:0"], "attr": {"T": {"type": "DT_FLOAT"}}}, {"name": "norm/Squeeze", "op": "Squeeze", "input": ["norm/Sqrt:y:0"], "attr": {"T": {"type": "DT_FLOAT"}, "squeeze_dims": {"list": {}}}}, {"name": "Greater", "op": "Greater", "input": ["norm/Squeeze:output:0", "__inference_while_cond_555_1802_frozen/Greater/y:output:0"], "attr": {"T": {"type": "DT_FLOAT"}}}, {"name": "cond", "op": "StatelessIf", "input": ["Greater:z:0", "placeholder_1", "Greater:z:0"], "attr": {"Tin": {"list": {"type": ["DT_FLOAT", "DT_BOOL"]}}, "else_branch": {"func": {"name": "__inference_cond_false_575_1780_frozen"}}, "output_shapes": {"list": {"shape": [{}]}}, "_read_only_resource_inputs": {"list": {}}, "_lower_using_switch_merge": {"b": false}, "Tout": {"list": {"type": ["DT_BOOL"]}}, "Tcond": {"type": "DT_BOOL"}, "then_branch": {"func": {"name": "__inference_cond_true_574_1758_frozen"}}}}], "ret": {"identity": "cond:output:0"}}, {"signature": {"name": "__inference_while_body_556_152_frozen", "inputArg": [{"name": "while_loop_counter", "type": "DT_INT32"}, {"name": "while_maximum_iterations", "type": "DT_INT32"}, {"name": "placeholder", "type": "DT_FLOAT"}, {"name": "placeholder_1", "type": "DT_FLOAT"}, {"name": "placeholder_2", "type": "DT_FLOAT"}, {"name": "placeholder_3", "type": "DT_FLOAT"}, {"name": "placeholder_4", "type": "DT_FLOAT"}, {"name": "shape_c_mat_sn_0", "type": "DT_FLOAT"}, {"name": "shape_2_l_mat_sd_0", "type": "DT_FLOAT"}, {"name": "strided_slice_9_val_mat_sd_0", "type": "DT_FLOAT"}], "outputArg": [{"name": "identity", "type": "DT_INT32"}, {"name": "identity_1", "type": "DT_INT32"}, {"name": "identity_2", "type": "DT_FLOAT"}, {"name": "identity_3", "type": "DT_FLOAT"}, {"name": "identity_4", "type": "DT_FLOAT"}, {"name": "identity_5", "type": "DT_FLOAT"}, {"name": "identity_6", "type": "DT_FLOAT"}, {"name": "shape_c_mat_sn", "type": "DT_FLOAT"}, {"name": "shape_2_l_mat_sd", "type": "DT_FLOAT"}, {"name": "strided_slice_9_val_mat_sd", "type": "DT_FLOAT"}]}, "nodeDef": [{"name": "__inference_while_body_556_152_frozen/add_1/y", "op": "Const", "attr": {"value": {"tensor": {"dtype": "DT_FLOAT", "tensorShape": {}}}, "dtype": {"type": "DT_FLOAT"}}}, {"name": "__inference_while_body_556_152_frozen/mul_6/x", "op": "Const", "attr": {"value": {"tensor": {"dtype": "DT_FLOAT", "tensorShape": {}}}, "dtype": {"type": "DT_FLOAT"}}}, {"name": "__inference_while_body_556_152_frozen/Sum_2/reduction_indices", "op": "Const", "attr": {"value": {"tensor": {"dtype": "DT_INT32", "tensorShape": {"dim": [{"size": "2"}]}}}, "dtype": {"type": "DT_INT32"}}}, {"name": "__inference_while_body_556_152_frozen/truediv_4/x", "op": "Const", "attr": {"value": {"tensor": {"dtype": "DT_FLOAT", "tensorShape": {}}}, "dtype": {"type": "DT_FLOAT"}}}, {"name": "__inference_while_body_556_152_frozen/strided_slice_12/stack", "op": "Const", "attr": {"value": {"tensor": {"dtype": "DT_INT32", "tensorShape": {"dim": [{"size": "3"}]}}}, "dtype": {"type": "DT_INT32"}}}, {"name": "__inference_while_body_556_152_frozen/strided_slice_12/stack_2", "op": "Const", "attr": {"dtype": {"type": "DT_INT32"}, "value": {"tensor": {"dtype": "DT_INT32", "tensorShape": {"dim": [{"size": "3"}]}}}}}, {"name": "__inference_while_body_556_152_frozen/strided_slice_14/stack", "op": "Const", "attr": {"dtype": {"type": "DT_INT32"}, "value": {"tensor": {"dtype": "DT_INT32", "tensorShape": {"dim": [{"size": "2"}]}}}}}, {"name": "__inference_while_body_556_152_frozen/strided_slice_14/stack_2", "op": "Const", "attr": {"value": {"tensor": {"dtype": "DT_INT32", "tensorShape": {"dim": [{"size": "2"}]}}}, "dtype": {"type": "DT_INT32"}}}, {"name": "__inference_while_body_556_152_frozen/strided_slice_2/stack_1", "op": "Const", "attr": {"dtype": {"type": "DT_INT32"}, "value": {"tensor": {"dtype": "DT_INT32", "tensorShape": {"dim": [{"size": "1"}]}}}}}, {"name": "__inference_while_body_556_152_frozen/strided_slice_11/stack", "op": "Const", "attr": {"value": {"tensor": {"dtype": "DT_INT32", "tensorShape": {"dim": [{"size": "1"}]}}}, "dtype": {"type": "DT_INT32"}}}, {"name": "__inference_while_body_556_152_frozen/strided_slice_11/stack_2", "op": "Const", "attr": {"dtype": {"type": "DT_INT32"}, "value": {"tensor": {"dtype": "DT_INT32", "tensorShape": {"dim": [{"size": "1"}]}}}}}, {"name": "__inference_while_body_556_152_frozen/Sum_1/reduction_indices", "op": "Const", "attr": {"dtype": {"type": "DT_INT32"}, "value": {"tensor": {"dtype": "DT_INT32", "tensorShape": {}}}}}, {"name": "__inference_while_body_556_152_frozen/Tile/multiples/0", "op": "Const", "attr": {"dtype": {"type": "DT_INT32"}, "value": {"tensor": {"dtype": "DT_INT32", "tensorShape": {}}}}}, {"name": "sub", "op": "Sub", "input": ["placeholder", "placeholder_1"], "attr": {"T": {"type": "DT_FLOAT"}}}, {"name": "Shape_2", "op": "Shape", "input": ["shape_2_l_mat_sd_0"], "attr": {"T": {"type": "DT_FLOAT"}, "out_type": {"type": "DT_INT32"}}}, {"name": "strided_slice_10", "op": "StridedSlice", "input": ["shape_2_l_mat_sd_0", "__inference_while_body_556_152_frozen/strided_slice_12/stack:output:0", "__inference_while_body_556_152_frozen/strided_slice_12/stack:output:0", "__inference_while_body_556_152_frozen/strided_slice_12/stack_2:output:0"], "attr": {"end_mask": {"i": "5"}, "T": {"type": "DT_FLOAT"}, "Index": {"type": "DT_INT32"}, "shrink_axis_mask": {"i": "0"}, "begin_mask": {"i": "5"}, "ellipsis_mask": {"i": "0"}, "new_axis_mask": {"i": "2"}}}, {"name": "strided_slice_12", "op": "StridedSlice", "input": ["strided_slice_9_val_mat_sd_0", "__inference_while_body_556_152_frozen/strided_slice_12/stack:output:0", "__inference_while_body_556_152_frozen/strided_slice_12/stack:output:0", "__inference_while_body_556_152_frozen/strided_slice_12/stack_2:output:0"], "attr": {"begin_mask": {"i": "5"}, "ellipsis_mask": {"i": "0"}, "new_axis_mask": {"i": "2"}, "end_mask": {"i": "5"}, "T": {"type": "DT_FLOAT"}, "Index": {"type": "DT_INT32"}, "shrink_axis_mask": {"i": "0"}}}, {"name": "add_3", "op": "AddV2", "input": ["__inference_while_body_556_152_frozen/Tile/multiples/0:output:0", "while_loop_counter"], "attr": {"T": {"type": "DT_INT32"}}}, {"name": "pow_1", "op": "Square", "input": ["sub:z:0"], "attr": {"T": {"type": "DT_FLOAT"}}}, {"name": "Log", "op": "Log", "input": ["sub:z:0"], "attr": {"T": {"type": "DT_FLOAT"}}}, {"name": "truediv_2", "op": "RealDiv", "input": ["__inference_while_body_556_152_frozen/truediv_4/x:output:0", "sub:z:0"], "attr": {"T": {"type": "DT_FLOAT"}}}, {"name": "strided_slice_2", "op": "StridedSlice", "input": ["Shape_2:output:0", "__inference_while_body_556_152_frozen/strided_slice_11/stack_2:output:0", "__inference_while_body_556_152_frozen/strided_slice_2/stack_1:output:0", "__inference_while_body_556_152_frozen/strided_slice_11/stack_2:output:0"], "attr": {"Index": {"type": "DT_INT32"}, "T": {"type": "DT_INT32"}, "shrink_axis_mask": {"i": "1"}, "begin_mask": {"i": "0"}, "ellipsis_mask": {"i": "0"}, "new_axis_mask": {"i": "0"}, "end_mask": {"i": "0"}}}, {"name": "pow", "op": "Square", "input": ["strided_slice_12:output:0"], "attr": {"T": {"type": "DT_FLOAT"}}}, {"name": "mul_3", "op": "Mul", "input": ["strided_slice_10:output:0", "strided_slice_12:output:0"], "attr": {"T": {"type": "DT_FLOAT"}}}, {"name": "truediv_4", "op": "RealDiv", "input": ["__inference_while_body_556_152_frozen/truediv_4/x:output:0", "pow_1:y:0"], "attr": {"T": {"type": "DT_FLOAT"}}}, {"name": "strided_slice_3", "op": "StridedSlice", "input": ["Log:y:0", "__inference_while_body_556_152_frozen/strided_slice_14/stack:output:0", "__inference_while_body_556_152_frozen/strided_slice_14/stack:output:0", "__inference_while_body_556_152_frozen/strided_slice_14/stack_2:output:0"], "attr": {"Index": {"type": "DT_INT32"}, "T": {"type": "DT_FLOAT"}, "shrink_axis_mask": {"i": "0"}, "ellipsis_mask": {"i": "0"}, "begin_mask": {"i": "1"}, "new_axis_mask": {"i": "2"}, "end_mask": {"i": "1"}}}, {"name": "Tile/multiples", "op": "Pack", "input": ["__inference_while_body_556_152_frozen/Tile/multiples/0:output:0", "strided_slice_2:output:0"], "attr": {"T": {"type": "DT_INT32"}, "axis": {"i": "0"}, "N": {"i": "2"}}}, {"name": "Tile", "op": "Tile", "input": ["strided_slice_3:output:0", "Tile/multiples:output:0"], "attr": {"Tmultiples": {"type": "DT_INT32"}, "T": {"type": "DT_FLOAT"}}}, {"name": "Cumsum", "op": "Cumsum", "input": ["Tile:output:0", "__inference_while_body_556_152_frozen/Sum_1/reduction_indices:output:0"], "attr": {"T": {"type": "DT_FLOAT"}, "exclusive": {"b": true}, "reverse": {"b": false}, "Tidx": {"type": "DT_INT32"}}}, {"name": "Exp", "op": "Exp", "input": ["Cumsum:out:0"], "attr": {"T": {"type": "DT_FLOAT"}}}, {"name": "strided_slice_11", "op": "StridedSlice", "input": ["Exp:y:0", "__inference_while_body_556_152_frozen/strided_slice_11/stack:output:0", "__inference_while_body_556_152_frozen/strided_slice_11/stack:output:0", "__inference_while_body_556_152_frozen/strided_slice_11/stack_2:output:0"], "attr": {"T": {"type": "DT_FLOAT"}, "Index": {"type": "DT_INT32"}, "shrink_axis_mask": {"i": "0"}, "ellipsis_mask": {"i": "0"}, "begin_mask": {"i": "0"}, "new_axis_mask": {"i": "1"}, "end_mask": {"i": "0"}}}, {"name": "mul_4", "op": "Mul", "input": ["mul_3:z:0", "strided_slice_11:output:0"], "attr": {"T": {"type": "DT_FLOAT"}}}, {"name": "mul_1", "op": "Mul", "input": ["strided_slice_10:output:0", "strided_slice_11:output:0"], "attr": {"T": {"type": "DT_FLOAT"}}}, {"name": "Sum_1", "op": "Sum", "input": ["mul_4:z:0", "__inference_while_body_556_152_frozen/Sum_1/reduction_indices:output:0"], "attr": {"T": {"type": "DT_FLOAT"}, "keep_dims": {"b": false}, "Tidx": {"type": "DT_INT32"}}}, {"name": "Sum", "op": "Sum", "input": ["mul_1:z:0", "__inference_while_body_556_152_frozen/Sum_1/reduction_indices:output:0"], "attr": {"keep_dims": {"b": false}, "Tidx": {"type": "DT_INT32"}, "T": {"type": "DT_FLOAT"}}}, {"name": "strided_slice_14", "op": "StridedSlice", "input": ["Sum_1:output:0", "__inference_while_body_556_152_frozen/strided_slice_14/stack:output:0", "__inference_while_body_556_152_frozen/strided_slice_14/stack:output:0", "__inference_while_body_556_152_frozen/strided_slice_14/stack_2:output:0"], "attr": {"end_mask": {"i": "0"}, "T": {"type": "DT_FLOAT"}, "Index": {"type": "DT_INT32"}, "shrink_axis_mask": {"i": "0"}, "ellipsis_mask": {"i": "1"}, "begin_mask": {"i": "0"}, "new_axis_mask": {"i": "2"}}}, {"name": "strided_slice_15", "op": "StridedSlice", "input": ["Sum:output:0", "__inference_while_body_556_152_frozen/strided_slice_14/stack:output:0", "__inference_while_body_556_152_frozen/strided_slice_14/stack:output:0", "__inference_while_body_556_152_frozen/strided_slice_14/stack_2:output:0"], "attr": {"shrink_axis_mask": {"i": "0"}, "ellipsis_mask": {"i": "1"}, "begin_mask": {"i": "0"}, "new_axis_mask": {"i": "2"}, "end_mask": {"i": "0"}, "T": {"type": "DT_FLOAT"}, "Index": {"type": "DT_INT32"}}}, {"name": "truediv", "op": "RealDiv", "input": ["shape_c_mat_sn_0", "Sum:output:0"], "attr": {"T": {"type": "DT_FLOAT"}}}, {"name": "strided_slice_8", "op": "StridedSlice", "input": ["truediv:z:0", "__inference_while_body_556_152_frozen/strided_slice_14/stack:output:0", "__inference_while_body_556_152_frozen/strided_slice_14/stack:output:0", "__inference_while_body_556_152_frozen/strided_slice_14/stack_2:output:0"], "attr": {"T": {"type": "DT_FLOAT"}, "Index": {"type": "DT_INT32"}, "shrink_axis_mask": {"i": "0"}, "ellipsis_mask": {"i": "1"}, "begin_mask": {"i": "0"}, "new_axis_mask": {"i": "2"}, "end_mask": {"i": "0"}}}, {"name": "mul_2", "op": "Mul", "input": ["mul_1:z:0", "strided_slice_8:output:0"], "attr": {"T": {"type": "DT_FLOAT"}}}, {"name": "mul_5", "op": "Mul", "input": ["mul_2:z:0", "pow:y:0"], "attr": {"T": {"type": "DT_FLOAT"}}}, {"name": "mul_6", "op": "Mul", "input": ["mul_2:z:0", "__inference_while_body_556_152_frozen/mul_6/x:output:0"], "attr": {"T": {"type": "DT_FLOAT"}}}, {"name": "mul_9", "op": "Mul", "input": ["mul_2:z:0", "strided_slice_12:output:0"], "attr": {"T": {"type": "DT_FLOAT"}}}, {"name": "mul_7", "op": "Mul", "input": ["mul_6:z:0", "strided_slice_12:output:0"], "attr": {"T": {"type": "DT_FLOAT"}}}, {"name": "Sum_3", "op": "Sum", "input": ["mul_9:z:0", "__inference_while_body_556_152_frozen/Sum_2/reduction_indices:output:0"], "attr": {"keep_dims": {"b": false}, "Tidx": {"type": "DT_INT32"}, "T": {"type": "DT_FLOAT"}}}, {"name": "mul_8", "op": "Mul", "input": ["mul_7:z:0", "strided_slice_14:output:0"], "attr": {"T": {"type": "DT_FLOAT"}}}, {"name": "add", "op": "AddV2", "input": ["Sum_3:output:0", "sub:z:0"], "attr": {"T": {"type": "DT_FLOAT"}}}, {"name": "truediv_1", "op": "RealDiv", "input": ["mul_8:z:0", "strided_slice_15:output:0"], "attr": {"T": {"type": "DT_FLOAT"}}}, {"name": "sub_2", "op": "Sub", "input": ["add:z:0", "truediv_2:z:0"], "attr": {"T": {"type": "DT_FLOAT"}}}, {"name": "sub_1", "op": "Sub", "input": ["mul_5:z:0", "truediv_1:z:0"], "attr": {"T": {"type": "DT_FLOAT"}}}, {"name": "Sum_2", "op": "Sum", "input": ["sub_1:z:0", "__inference_while_body_556_152_frozen/Sum_2/reduction_indices:output:0"], "attr": {"T": {"type": "DT_FLOAT"}, "keep_dims": {"b": false}, "Tidx": {"type": "DT_INT32"}}}, {"name": "truediv_3", "op": "RealDiv", "input": ["Sum_2:output:0", "sub:z:0"], "attr": {"T": {"type": "DT_FLOAT"}}}, {"name": "add_1", "op": "AddV2", "input": ["__inference_while_body_556_152_frozen/add_1/y:output:0", "truediv_3:z:0"], "attr": {"T": {"type": "DT_FLOAT"}}}, {"name": "add_2", "op": "AddV2", "input": ["add_1:z:0", "truediv_4:z:0"], "attr": {"T": {"type": "DT_FLOAT"}}}, {"name": "truediv_5", "op": "RealDiv", "input": ["sub_2:z:0", "add_2:z:0"], "attr": {"T": {"type": "DT_FLOAT"}}}], "ret": {"shape_2_l_mat_sd": "shape_2_l_mat_sd_0", "identity_1": "while_maximum_iterations", "identity_2": "sub:z:0", "identity_3": "truediv_5:z:0", "identity_4": "Exp:y:0", "identity": "add_3:z:0", "identity_5": "sub_2:z:0", "identity_6": "Sum:output:0", "strided_slice_9_val_mat_sd": "strided_slice_9_val_mat_sd_0", "shape_c_mat_sn": "shape_c_mat_sn_0"}}, {"signature": {"name": "__inference_cond_false_200_7_frozen", "inputArg": [{"name": "placeholder", "type": "DT_FLOAT"}, {"name": "placeholder_1", "type": "DT_FLOAT"}, {"name": "identity_greater", "type": "DT_BOOL"}], "outputArg": [{"name": "identity", "type": "DT_BOOL"}]}, "ret": {"identity": "identity_greater"}}, {"signature": {"name": "__inference_cond_false_211_1954_frozen", "inputArg": [{"name": "placeholder", "type": "DT_FLOAT"}, {"name": "identity_greater", "type": "DT_BOOL"}], "outputArg": [{"name": "identity", "type": "DT_BOOL"}]}, "ret": {"identity": "identity_greater"}}, {"signature": {"name": "__inference_cond_true_574_1758_frozen", "inputArg": [{"name": "norm_mul_placeholder_1", "type": "DT_FLOAT"}, {"name": "placeholder", "type": "DT_BOOL"}], "outputArg": [{"name": "identity", "type": "DT_BOOL"}]}, "nodeDef": [{"name": "__inference_cond_true_574_1758_frozen/norm/Const", "op": "Const", "attr": {"value": {"tensor": {"dtype": "DT_INT32", "tensorShape": {"dim": [{"size": "1"}]}}}, "dtype": {"type": "DT_INT32"}}}, {"name": "__inference_cond_true_574_1758_frozen/Greater/y", "op": "Const", "attr": {"value": {"tensor": {"dtype": "DT_FLOAT", "tensorShape": {}}}, "dtype": {"type": "DT_FLOAT"}}}, {"name": "norm/ArithmeticOptimizer/ReplaceMulWithSquare_mul", "op": "Square", "input": ["norm_mul_placeholder_1"], "attr": {"T": {"type": "DT_FLOAT"}}}, {"name": "norm/Sum", "op": "Sum", "input": ["norm/ArithmeticOptimizer/ReplaceMulWithSquare_mul:y:0", "__inference_cond_true_574_1758_frozen/norm/Const:output:0"], "attr": {"keep_dims": {"b": true}, "Tidx": {"type": "DT_INT32"}, "T": {"type": "DT_FLOAT"}}}, {"name": "norm/Sqrt", "op": "Sqrt", "input": ["norm/Sum:output:0"], "attr": {"T": {"type": "DT_FLOAT"}}}, {"name": "norm/Squeeze", "op": "Squeeze", "input": ["norm/Sqrt:y:0"], "attr": {"squeeze_dims": {"list": {}}, "T": {"type": "DT_FLOAT"}}}, {"name": "Greater", "op": "Greater", "input": ["norm/Squeeze:output:0", "__inference_cond_true_574_1758_frozen/Greater/y:output:0"], "attr": {"T": {"type": "DT_FLOAT"}}}], "ret": {"identity": "Greater:z:0"}}]}, "versions": {"producer": 175, "minConsumer": 12}}, "weightsManifest": [{"paths": ["group1-shard1of1.bin"], "weights": [{"name": "PartitionedCall/Sum_4/reduction_indices", "shape": [], "dtype": "int32"}, {"name": "PartitionedCall/mul_14/x", "shape": [], "dtype": "float32"}, {"name": "PartitionedCall/mul_22/x", "shape": [], "dtype": "float32"}, {"name": "PartitionedCall/mul_18/x", "shape": [], "dtype": "float32"}, {"name": "PartitionedCall/truediv_7/x", "shape": [], "dtype": "float32"}, {"name": "PartitionedCall/Less/y", "shape": [], "dtype": "float32"}, {"name": "PartitionedCall/while_1/loop_counter", "shape": [], "dtype": "int32"}, {"name": "PartitionedCall/add_6/y", "shape": [], "dtype": "float32"}, {"name": "PartitionedCall/Sum_2/reduction_indices", "shape": [2], "dtype": "int32"}, {"name": "PartitionedCall/truediv_4/x", "shape": [], "dtype": "float32"}, {"name": "PartitionedCall/strided_slice_19/stack", "shape": [2], "dtype": "int32"}, {"name": "PartitionedCall/strided_slice_19/stack_2", "shape": [2], "dtype": "int32"}, {"name": "PartitionedCall/Tile/multiples/0", "shape": [], "dtype": "int32"}, {"name": "PartitionedCall/strided_slice_2/stack_1", "shape": [1], "dtype": "int32"}, {"name": "PartitionedCall/strided_slice_18/stack", "shape": [1], "dtype": "int32"}, {"name": "PartitionedCall/strided_slice_18/stack_2", "shape": [1], "dtype": "int32"}, {"name": "PartitionedCall/strided_slice_22/stack", "shape": [3], "dtype": "int32"}, {"name": "PartitionedCall/strided_slice_22/stack_2", "shape": [3], "dtype": "int32"}, {"name": "PartitionedCall/while_1/maximum_iterations", "shape": [], "dtype": "int32"}, {"name": "__inference_while_1_body_849_1581_frozen/mul_133/x", "shape": [], "dtype": "float32"}, {"name": "__inference_while_1_body_849_1581_frozen/pow_7/y", "shape": [], "dtype": "float32"}, {"name": "__inference_while_1_body_849_1581_frozen/clip_by_value/Minimum/y", "shape": [], "dtype": "float32"}, {"name": "__inference_while_1_body_849_1581_frozen/clip_by_value/y", "shape": [], "dtype": "float32"}, {"name": "__inference_while_1_body_849_1581_frozen/mul_126/x", "shape": [], "dtype": "float32"}, {"name": "__inference_while_1_body_849_1581_frozen/mul_128/x", "shape": [], "dtype": "float32"}, {"name": "__inference_while_1_body_849_1581_frozen/mul_129/x", "shape": [], "dtype": "float32"}, {"name": "__inference_while_1_body_849_1581_frozen/mul_130/x", "shape": [], "dtype": "float32"}, {"name": "__inference_while_1_body_849_1581_frozen/mul_131/x", "shape": [], "dtype": "float32"}, {"name": "__inference_while_1_body_849_1581_frozen/mul_132/x", "shape": [], "dtype": "float32"}, {"name": "__inference_while_1_body_849_1581_frozen/mul_105/x", "shape": [], "dtype": "float32"}, {"name": "__inference_while_1_body_849_1581_frozen/mul_127/x", "shape": [], "dtype": "float32"}, {"name": "__inference_while_1_body_849_1581_frozen/mul_107/x", "shape": [], "dtype": "float32"}, {"name": "__inference_while_1_body_849_1581_frozen/mul_108/x", "shape": [], "dtype": "float32"}, {"name": "__inference_while_1_body_849_1581_frozen/mul_109/x", "shape": [], "dtype": "float32"}, {"name": "__inference_while_1_body_849_1581_frozen/mul_85/x", "shape": [], "dtype": "float32"}, {"name": "__inference_while_1_body_849_1581_frozen/mul_86/x", "shape": [], "dtype": "float32"}, {"name": "__inference_while_1_body_849_1581_frozen/mul_87/x", "shape": [], "dtype": "float32"}, {"name": "__inference_while_1_body_849_1581_frozen/mul_88/x", "shape": [], "dtype": "float32"}, {"name": "__inference_while_1_body_849_1581_frozen/mul_66/x", "shape": [], "dtype": "float32"}, {"name": "__inference_while_1_body_849_1581_frozen/mul_67/x", "shape": [], "dtype": "float32"}, {"name": "__inference_while_1_body_849_1581_frozen/mul_68/x", "shape": [], "dtype": "float32"}, {"name": "__inference_while_1_body_849_1581_frozen/mul_48/x", "shape": [], "dtype": "float32"}, {"name": "__inference_while_1_body_849_1581_frozen/mul_49/x", "shape": [], "dtype": "float32"}, {"name": "__inference_while_1_body_849_1581_frozen/mul_31/x", "shape": [], "dtype": "float32"}, {"name": "__inference_while_1_body_849_1581_frozen/Max_6/reduction_indices", "shape": [], "dtype": "int32"}, {"name": "__inference_while_1_body_849_1581_frozen/mul_114/x", "shape": [], "dtype": "float32"}, {"name": "__inference_while_1_body_849_1581_frozen/sub_76/x", "shape": [], "dtype": "float32"}, {"name": "__inference_while_1_body_849_1581_frozen/strided_slice_195/stack", "shape": [2], "dtype": "int32"}, {"name": "__inference_while_1_body_849_1581_frozen/strided_slice_179/stack_1", "shape": [2], "dtype": "int32"}, {"name": "__inference_while_1_body_849_1581_frozen/Pad_6/paddings", "shape": [2, 2], "dtype": "int32"}, {"name": "__inference_while_1_body_849_1581_frozen/strided_slice_196/stack_1", "shape": [2], "dtype": "int32"}, {"name": "__inference_while_1_body_849_1581_frozen/mul_15/x", "shape": [], "dtype": "float32"}, {"name": "__inference_while_1_body_849_1581_frozen/mul_32/x", "shape": [], "dtype": "float32"}, {"name": "__inference_while_1_body_849_1581_frozen/mul_50/x", "shape": [], "dtype": "float32"}, {"name": "__inference_while_1_body_849_1581_frozen/mul_69/x", "shape": [], "dtype": "float32"}, {"name": "__inference_while_1_body_849_1581_frozen/mul_89/x", "shape": [], "dtype": "float32"}, {"name": "__inference_while_1_body_849_1581_frozen/strided_slice_175/stack", "shape": [1], "dtype": "int32"}, {"name": "__inference_while_1_body_849_1581_frozen/strided_slice_175/stack_2", "shape": [1], "dtype": "int32"}, {"name": "__inference_while_1_body_849_1581_frozen/strided_slice_200/stack_1", "shape": [2], "dtype": "int32"}, {"name": "__inference_while_1_body_849_1581_frozen/strided_slice_179/stack", "shape": [2], "dtype": "int32"}, {"name": "__inference_while_1_body_849_1581_frozen/strided_slice_179/stack_2", "shape": [2], "dtype": "int32"}, {"name": "__inference_while_1_body_849_1581_frozen/concat_6/axis", "shape": [], "dtype": "int32"}, {"name": "__inference_while_1_body_849_1581_frozen/mul_110/x", "shape": [], "dtype": "float32"}, {"name": "__inference_while_1_body_849_1581_frozen/ExpandDims_12/dim", "shape": [], "dtype": "int32"}, {"name": "__inference_while_body_181_1726_frozen/mul_6/x", "shape": [], "dtype": "float32"}, {"name": "__inference_while_body_181_1726_frozen/Sum_2/reduction_indices", "shape": [2], "dtype": "int32"}, {"name": "__inference_while_body_181_1726_frozen/truediv_4/x", "shape": [], "dtype": "float32"}, {"name": "__inference_while_body_181_1726_frozen/strided_slice_12/stack", "shape": [3], "dtype": "int32"}, {"name": "__inference_while_body_181_1726_frozen/strided_slice_12/stack_2", "shape": [3], "dtype": "int32"}, {"name": "__inference_while_body_181_1726_frozen/strided_slice_14/stack", "shape": [2], "dtype": "int32"}, {"name": "__inference_while_body_181_1726_frozen/strided_slice_14/stack_2", "shape": [2], "dtype": "int32"}, {"name": "__inference_while_body_181_1726_frozen/strided_slice_2/stack_1", "shape": [1], "dtype": "int32"}, {"name": "__inference_while_body_181_1726_frozen/strided_slice_11/stack", "shape": [1], "dtype": "int32"}, {"name": "__inference_while_body_181_1726_frozen/strided_slice_11/stack_2", "shape": [1], "dtype": "int32"}, {"name": "__inference_while_body_181_1726_frozen/Sum_1/reduction_indices", "shape": [], "dtype": "int32"}, {"name": "__inference_while_body_181_1726_frozen/Tile/multiples/0", "shape": [], "dtype": "int32"}, {"name": "__inference_while_cond_180_1991_frozen/norm/Const", "shape": [1], "dtype": "int32"}, {"name": "__inference_while_cond_180_1991_frozen/Greater/y", "shape": [], "dtype": "float32"}, {"name": "__inference_cond_true_210_161_frozen/Const", "shape": [1], "dtype": "int32"}, {"name": "__inference_cond_true_210_161_frozen/Greater/y", "shape": [], "dtype": "float32"}, {"name": "__inference_cond_true_398_1949_frozen/while/loop_counter", "shape": [], "dtype": "int32"}, {"name": "__inference_cond_true_398_1949_frozen/add_1/y", "shape": [], "dtype": "float32"}, {"name": "__inference_cond_true_398_1949_frozen/mul_6/x", "shape": [], "dtype": "float32"}, {"name": "__inference_cond_true_398_1949_frozen/Sum_2/reduction_indices", "shape": [2], "dtype": "int32"}, {"name": "__inference_cond_true_398_1949_frozen/truediv_4/x", "shape": [], "dtype": "float32"}, {"name": "__inference_cond_true_398_1949_frozen/strided_slice_12/stack", "shape": [3], "dtype": "int32"}, {"name": "__inference_cond_true_398_1949_frozen/strided_slice_12/stack_2", "shape": [3], "dtype": "int32"}, {"name": "__inference_cond_true_398_1949_frozen/strided_slice_14/stack", "shape": [2], "dtype": "int32"}, {"name": "__inference_cond_true_398_1949_frozen/strided_slice_14/stack_2", "shape": [2], "dtype": "int32"}, {"name": "__inference_cond_true_398_1949_frozen/Tile/multiples/0", "shape": [], "dtype": "int32"}, {"name": "__inference_cond_true_398_1949_frozen/strided_slice_2/stack_1", "shape": [1], "dtype": "int32"}, {"name": "__inference_cond_true_398_1949_frozen/strided_slice_11/stack", "shape": [1], "dtype": "int32"}, {"name": "__inference_cond_true_398_1949_frozen/strided_slice_11/stack_2", "shape": [1], "dtype": "int32"}, {"name": "__inference_cond_true_398_1949_frozen/while/maximum_iterations", "shape": [], "dtype": "int32"}, {"name": "__inference_cond_true_199_1969_frozen/norm/Const", "shape": [1], "dtype": "int32"}, {"name": "__inference_cond_true_199_1969_frozen/Greater/y", "shape": [], "dtype": "float32"}, {"name": "__inference_while_cond_555_1802_frozen/norm/Const", "shape": [1], "dtype": "int32"}, {"name": "__inference_while_cond_555_1802_frozen/Greater/y", "shape": [], "dtype": "float32"}, {"name": "__inference_while_body_556_152_frozen/add_1/y", "shape": [], "dtype": "float32"}, {"name": "__inference_while_body_556_152_frozen/mul_6/x", "shape": [], "dtype": "float32"}, {"name": "__inference_while_body_556_152_frozen/Sum_2/reduction_indices", "shape": [2], "dtype": "int32"}, {"name": "__inference_while_body_556_152_frozen/truediv_4/x", "shape": [], "dtype": "float32"}, {"name": "__inference_while_body_556_152_frozen/strided_slice_12/stack", "shape": [3], "dtype": "int32"}, {"name": "__inference_while_body_556_152_frozen/strided_slice_12/stack_2", "shape": [3], "dtype": "int32"}, {"name": "__inference_while_body_556_152_frozen/strided_slice_14/stack", "shape": [2], "dtype": "int32"}, {"name": "__inference_while_body_556_152_frozen/strided_slice_14/stack_2", "shape": [2], "dtype": "int32"}, {"name": "__inference_while_body_556_152_frozen/strided_slice_2/stack_1", "shape": [1], "dtype": "int32"}, {"name": "__inference_while_body_556_152_frozen/strided_slice_11/stack", "shape": [1], "dtype": "int32"}, {"name": "__inference_while_body_556_152_frozen/strided_slice_11/stack_2", "shape": [1], "dtype": "int32"}, {"name": "__inference_while_body_556_152_frozen/Sum_1/reduction_indices", "shape": [], "dtype": "int32"}, {"name": "__inference_while_body_556_152_frozen/Tile/multiples/0", "shape": [], "dtype": "int32"}, {"name": "__inference_cond_true_574_1758_frozen/norm/Const", "shape": [1], "dtype": "int32"}, {"name": "__inference_cond_true_574_1758_frozen/Greater/y", "shape": [], "dtype": "float32"}]}]}